model-ppo/from-paper/InvertedPendulum-v4_pol.pt (torch, 38178 bytes, 10 tensors)

inLayer.0.weight f4 [32, 4]
000000 ad a2 d7 be 87 ce d6 be d3 20 31 3e c1 5d ea bc
       -0.421163 -0.41954443 0.17297678 -0.028609158
000010 cd 6b 05 3e 02 5d b0 bd a6 4c 2b 3e f8 46 85 be
       0.13029404 -0.0861149 0.16728458 -0.26030707
000020 33 18 fd bd 3b ad 8b be c9 d0 61 3e 57 3e a9 3e
       -0.12358131 -0.27280602 0.22052301 0.33055374
000030 17 a8 ac be 68 73 8c bc ff 4f aa be 6d a6 f9 be
       -0.33721992 -0.017144874 -0.33264157 -0.48759785
000040 dc 40 e9 be 66 58 da 3e 9c 46 d2 3e 2e b2 e0 be
       -0.45557296 0.42645568 0.41069496 -0.4388594
000050 7b e1 1f 3e d0 1a c7 be 1d 6d f0 be d4 b0 d9 3c
       0.15613358 -0.38887644 -0.46958247 0.026573576
000060 80 ac a8 be a8 ef 7a be 6a 51 da 3d 7c ff d0 be
       -0.32944107 -0.24505484 0.1066006 -0.4081992
000070 d2 ba 80 be 90 97 48 be b8 a5 d8 3e b9 2d 95 3e
       -0.25142533 -0.19589067 0.42313933 0.29136446
000080 d3 5f 93 be e5 a5 ab bd 2d 37 c1 3e 39 13 9c 3e
       -0.28784046 -0.08381251 0.37737408 0.30483416
000090 db f6 ca be ee dc fc be e2 d2 bb 3e f6 74 f0 3d
       -0.3964146 -0.49387306 0.36684328 0.117410585
0000a0 13 4e b6 be fb 30 53 3d 32 48 bc bb 56 76 cb be
       -0.3560644 0.051560383 -0.005745911 -0.3973872
0000b0 0b ae 01 3f e4 ea c4 bd 91 69 a1 bd 92 86 1b be
       0.50656193 -0.09615114 -0.07881463 -0.15188053
0000c0 26 fb de be 5a f2 1c 3e b8 7e 8f be 08 15 88 be
       -0.43550986 0.15326825 -0.28026366 -0.26578546
0000d0 69 12 28 be 13 bb fb 3d ac ab 9e be 31 b0 d6 be
       -0.16413273 0.12291541 -0.3099035 -0.41931298
0000e0 61 e5 5c 3e 28 0f f0 3e 0e b0 00 be 9f 25 ce 3e
       0.21571876 0.46886563 -0.1256716 0.40263078
0000f0 ae dd ee 3e bc 08 af be c6 df 6f be 83 b9 98 be
       0.46653503 -0.3418635 -0.23425207 -0.29829034
000100 2a 48 bb 3c 9f f7 ea 3e 48 93 88 bd bf d9 15 3e
       0.022861559 0.45892045 -0.06668717 0.14633845
000110 a7 9b 44 be fd dc d6 be 44 eb ae 3e fe 9d c5 be
       -0.19200002 -0.41965476 0.34163868 -0.385971
000120 06 e7 3f be 1c aa ad 3e da d8 4f 3d 7e 85 54 be
       -0.18740472 0.33918846 0.050743915 -0.20754048
000130 52 e5 d8 be 34 0f d8 be c5 99 de be a9 cc 81 3e
       -0.42362458 -0.421991 -0.43476692 0.25351456
000140 8f 61 c8 3e 53 de 1a 3d ce 62 35 be 38 6d be bd
       0.3913693 0.03780968 -0.17713472 -0.092981756
000150 b5 25 ce 3e d9 35 01 be 10 63 b7 bd 3d 7e 69 3e
       0.40263143 -0.12618198 -0.089544415 0.22802062
000160 e7 e8 f6 bd fe 2b c0 bd 0e 43 04 3e c3 a3 4f 3e
       -0.12056141 -0.09383391 0.12916204 0.20277314
000170 0d d0 8e 3e 53 38 77 be 24 2a 72 3e db 1f b2 3e
       0.27893105 -0.2414258 0.23648888 0.3478993
000180 4b 29 a6 3e 65 e3 55 3d 5e 65 55 be fe 91 78 3e
       0.3245338 0.052218813 -0.2083945 0.24274442
000190 bc 22 c3 bd b5 d3 a8 3e a9 4b 96 be 38 bb 8b 3e
       -0.095281094 0.3297402 -0.293546 0.27291274
0001a0 a1 8a 5c be 54 f4 2d be b0 66 98 3d 32 15 b1 3e
       -0.21537258 -0.16987735 0.07441461 0.34586483
0001b0 9c 46 cd be 3a 73 9b 3e ba 00 a0 be 0b 6d 33 be
       -0.40092933 0.30361348 -0.31250554 -0.17522065
0001c0 26 cb 05 3f 62 64 db be 76 d8 cc bd 78 f9 ca be
       0.52263105 -0.42850024 -0.10002224 -0.39643455
0001d0 bc 02 dc be 76 fb 9b 3c 2c 0d dc be 41 aa c8 3e
       -0.42970836 0.019040804 -0.429788 0.39192393
0001e0 e5 0b d6 3e 42 7f 8a 3c 29 d2 41 3d 14 36 df 3e
       0.4180595 0.016906384 0.047319565 0.43595946
0001f0 1a 41 9d bd dd db c0 3d 19 6a 98 3e ce 61 86 be
       -0.07678433 0.094169356 0.29768446 -0.26246494

inLayer.0.bias f4 [32]
000000 5d 64 14 3e c5 2f fa bc 02 4c 6a 3e fe ee ad 3e
       0.1449141 -0.030540356 0.22880557 0.339714
000010 03 d0 9e 3d 2b 58 5f 3d fa b4 00 bf 1e f0 b4 3e
       0.07754519 0.054527443 -0.5027615 0.35339445
000020 1d 47 2e 3c b3 32 a9 3e 52 16 49 3e 81 d4 e0 3e
       0.010637072 0.33046493 0.19637421 0.43912128
000030 e7 ca 04 bd aa c6 9b 3e f9 40 d8 be bd 80 c3 be
       -0.032420065 0.30425006 -0.4223707 -0.38184157
000040 c4 a2 da 3e 68 5b 89 3d 6a 58 62 be 99 36 91 3e
       0.42702305 0.067068875 -0.2210404 0.28361967
000050 1d d3 48 3e f7 e0 b1 3d 94 29 7a be 0e 7a e7 3d
       0.19611783 0.08685487 -0.24429923 0.11302577
000060 ca 1b 04 bc ce f0 88 3e 2b 08 f6 be 4c 55 ea be
       -0.008063266 0.2674622 -0.48053107 -0.457682
000070 14 2e cf be ca aa 40 3d 21 94 ab 3e 53 39 44 be
       -0.40464842 0.047037877 0.3351145 -0.19162492

linLayer1.0.weight f4 [64, 32]
000000 0d 0d d7 3d d8 39 92 3d 06 a0 fb bd 95 4b e1 3d
       0.10500536 0.07139939 -0.122863814 0.11000744
000010 87 0e d1 3d 81 bb 24 3d ac 2a 27 bc ef d2 bf bd
       0.10207849 0.04021788 -0.010203045 -0.09366404
000020 f7 52 9f 3d 2e 94 ed bd 23 90 cd bd 69 29 1f 3e
       0.07779496 -0.11600529 -0.100372575 0.1554314
000030 3c dd 0a 3e 08 49 d7 bd d3 ea 10 be 79 9d ef 3d
       0.13560957 -0.105119765 -0.14152078 0.116999574
000040 23 9e 8c bd 17 8b 13 be 48 b6 72 bd f6 eb c6 bc
       -0.068661 -0.14408527 -0.05925587 -0.024282437
000050 8a b2 bb 3d 0e 02 3e 3e 29 33 8d bd a7 61 e1 bd
       0.09164913 0.18555471 -0.06894524 -0.11004954
000060 47 0b 64 bd e4 92 aa 3d 6c b6 72 be 81 70 96 3d
       -0.055674817 0.083287984 -0.23702401 0.07345677
000070 76 ee eb bd 2c ca 7b 3d 8c 37 64 3d 9f 20 10 bd
       -0.11520092 0.061472103 0.055717036 -0.03518736
000080 f7 6e f3 3d 12 a8 0d 3e b5 fa f3 3d d8 b8 ed 3d
       0.11886399 0.13833645 0.11913053 0.11607522
000090 64 ce 82 3c de ca 7d 3d 55 e7 22 be 70 03 1d bc
       0.015967555 0.061961047 -0.15908559 -0.009583339
0000a0 5c 00 ab 3d bf 44 24 bc 65 74 b6 3d 67 f9 43 bd
       0.08349678 -0.010026156 0.08908919 -0.04784527
0000b0 27 b6 bf 3d 52 cf 69 3d 42 f7 ae ba c0 25 18 bd
       0.09360915 0.05708248 -0.0013348835 -0.037145376
0000c0 b2 50 02 3e c3 28 6c 3d 83 95 7a 3b 29 13 78 bd
       0.12726095 0.05765606 0.0038236089 -0.060565148
0000d0 22 00 38 3e 10 a2 ab bb ba ec b4 3d a4 ad 15 3e
       0.179688 -0.005237825 0.088342145 0.1461702
0000e0 d6 30 ac bd db d7 c5 3c 90 63 d1 3d e1 c0 8a bb
       -0.08407752 0.02415078 0.10224068 -0.0042344187
0000f0 c8 5e 11 3e ac 55 b1 bd 54 d4 b2 3d 6f d8 cd 3d
       0.14196312 -0.08658919 0.087319046 0.10051047
000100 40 b9 1b 3e f9 ae 8f bc 2c 08 f4 3d 38 e7 44 bd
       0.15207386 -0.017539488 0.11915621 -0.04807207
000110 22 8b ce 3c c4 25 d5 bd d5 39 de bc ae 8a f3 bb
       0.025212828 -0.10407594 -0.027127186 -0.0074323034
000120 5b 0b d8 bd 94 a9 8b 3d 8f cf 16 be ea e4 8a 3c
       -0.10549041 0.06819454 -0.14727615 0.016954858
000130 bf 9c 90 bd 3b 5f aa 3d 23 0d 95 3d 0e f9 52 be
       -0.07061147 0.08318945 0.07277896 -0.2060282
000140 10 bd a9 3d 94 1e e2 3c 89 09 06 bd ee 46 7b 3e
       0.08288014 0.027602471 -0.032723937 0.24538776
000150 f8 46 76 3e 59 f3 3f bd 06 8e 03 3e f5 04 3d bc
       0.2405051 -0.046862934 0.12847146 -0.011536826
000160 50 ad bb bc 5c 0c 27 3c 58 c9 4d be 3f bf fd bc
       -0.02290979 0.010195818 -0.20096338 -0.030974982
000170 62 ac 21 bd 7e 0a ec 3d c3 fe 4c 3e e2 52 ee bd
       -0.039471038 0.11525439 0.20019059 -0.116369024
000180 51 0e 97 bc 56 e2 35 3d 02 64 30 bd 52 38 32 be
       -0.018439444 0.044405304 -0.043064125 -0.17404297
000190 10 b1 17 3e ea 55 ec 3d 26 eb a5 bc 7c 47 3e 3d
       0.14813638 0.11539824 -0.02025373 0.04645489
0001a0 1e f3 78 bd 05 8a 9c bd da 20 43 be 56 97 f4 bc
       -0.06077873 -0.07643513 -0.190555 -0.029857319
0001b0 87 b1 33 bd 46 47 09 3e 3e 5e 02 be e8 18 2a 3e
       -0.043870475 0.13406095 -0.12731263 0.16611063
0001c0 a4 d1 bf bd 27 6f 2e be a7 02 1c 3e 19 ac 47 bd
       -0.09366158 -0.17034589 0.15235387 -0.04874811
0001d0 08 7c de bd 9f d2 2a bc 7f ec d6 bd c2 96 83 3d
       -0.10863501 -0.010426193 -0.10494327 0.06425239
0001e0 ba 02 f4 3d 31 b4 69 3d 4f cc 07 3e 43 85 b7 3d
       0.119145826 0.05705661 0.13261531 0.089609645
0001f0 d6 a0 be ba 7c 05 13 be 05 76 01 bc f7 ac 27 be
       -0.0014543782 -0.14357561 -0.007901673 -0.16374575
000200 aa e1 5c 3b 26 75 1f 3e 78 90 a0 bc 20 bb e4 3d
       0.0033703842 0.15572032 -0.019600138 0.11168504
000210 ee e3 d9 3d 6b 96 3b be dd 99 44 bc 67 df 9f 3d
       0.10639177 -0.18319099 -0.0119995745 0.078062825
000220 83 28 55 be 6a 9a 67 3d 4b 8d cd 3d 09 99 97 bd
       -0.20816235 0.056543745 0.10036715 -0.07402236
000230 cb 0f 98 ba 67 95 13 be 56 32 03 be 03 07 8b bd
       -0.0011601386 -0.14412461 -0.1281217 -0.06788447
000240 54 28 b8 3d 43 69 af 3d 7e c3 b3 3d ab 76 5d be
       0.08992067 0.08564999 0.087775216 -0.216273
000250 90 c4 a5 bd 3b ac 02 3e 24 6f 3e 3e e2 fa 06 3e
       -0.08094132 0.12761013 0.18597084 0.13181642
000260 87 b8 f4 bd 75 2d 09 bd 34 51 23 3e 1e 4d a2 3d
       -0.11949258 -0.033490617 0.15948945 0.07924865
000270 83 a9 50 3e 47 3a 0f be 1e 11 5e bd 15 7c db 3c
       0.20377164 -0.13987075 -0.054215543 0.026792565
000280 a1 6f 04 3e d4 96 1a 3e af ac 02 bd 82 a9 74 3d
       0.12933208 0.15096599 -0.031902965 0.059731968
000290 d2 f8 7d 3d 1f 1c 93 bd 56 43 15 bd ce 2e b0 3d
       0.06200487 -0.07183098 -0.03644117 0.08602677
0002a0 9d 23 35 be b1 99 be 3d 5d f7 5c bd 2f 05 d1 bc
       -0.17689367 0.09306658 -0.05394684 -0.025515167
0002b0 35 4b 11 be b0 11 81 bd 86 12 5e 3c a5 ad e5 3c
       -0.14188845 -0.06302202 0.013554221 0.028036902
0002c0 23 71 55 be 52 5b 47 be 9d 77 fd 3d b0 5d 7c bd
       -0.2084394 -0.1946843 0.1237633 -0.061612785
0002d0 a7 f0 11 be b8 28 ce 3b 1e 28 b6 bd c4 ea 93 bd
       -0.14251958 0.006291475 -0.088943705 -0.07222512
0002e0 bf 7b e6 3d 60 79 3d be 4a 06 2d bd 78 12 0d 3e
       0.112540714 -0.18503332 -0.042242326 0.13776577
0002f0 f2 5c d4 bd 81 43 63 3b 53 d9 f7 bd d4 ff 8e bd
       -0.103692904 0.0034677687 -0.12101998 -0.06982389
000300 4c 46 a2 bd 43 80 e3 3d 4e 9f 1f be 79 ab 32 3e
       -0.07923564 0.11108448 -0.15588114 0.17448224
000310 36 43 0f be 20 88 e1 bd 05 6b 2b 3c 0e 5e 03 3e
       -0.13990483 -0.11012292 0.010462527 0.12828848
000320 d3 98 23 be 13 53 f4 3d 6e 19 06 bd 50 02 fe 3c
       -0.15976267 0.11929908 -0.032739095 0.031006962
000330 90 03 17 be 8f cd be bc 37 95 ac 3d 3b b2 12 be
       -0.14747453 -0.023291377 0.08426898 -0.14325802
000340 ef cb 0f 3e 7a 4e e9 3d 20 49 e4 3d aa 88 ae 3d
       0.14042638 0.11391921 0.1114676 0.0852216
000350 5a 01 9b bb 15 c0 14 3e 44 cc f0 bd 7f 5c cf bd
       -0.0047303857 0.14526398 -0.117577106 -0.10125064
000360 cb 9e c3 3d b2 2c 84 bb 1e 53 e6 bd 7e 3c b1 3c
       0.09551772 -0.0040336484 -0.11246322 0.02163529
000370 3b 46 26 be 72 8f 88 3d 98 f7 fd 3d 3f 47 fd bd
       -0.16237728 0.06667985 0.124007404 -0.12367105
000380 7e d9 3e bd c5 4e f8 bd eb fc be bd a7 05 85 bd
       -0.046594135 -0.12124399 -0.09325584 -0.06495219
000390 8f 50 3c be 94 ce d3 3d e0 9e 17 be c6 80 17 3e
       -0.18390106 0.10342136 -0.148067 0.14795217
0003a0 dc c7 ca 3d ac 8a c8 3c 4b bf 99 3d 37 73 e3 3d
       0.099014014 0.024480186 0.07507189 0.1110596
0003b0 a0 39 e9 3d 58 bb e3 3d 47 d9 40 bd 63 09 ac bd
       0.11387944 0.11119717 -0.04708221 -0.08400228
0003c0 bc 52 b5 bd af dc 06 be d3 ef 08 3e 40 5a 7f bd
       -0.08853671 -0.13170122 0.13372736 -0.06234193
0003d0 44 5d 2c bc 14 e8 32 3e ba 86 18 be d0 71 eb 3d
       -0.010520283 0.17471343 -0.14895144 0.114963174
0003e0 74 62 4e 3e cd 48 d3 3d a7 89 f5 3d 9f 7a b9 3d
       0.20154744 0.1031662 0.11989146 0.09056591
0003f0 f1 12 2d be 4a 9a 5b 3d 28 0c 39 bc 29 bf 01 3c
       -0.16901757 0.05361394 -0.011294402 0.007919111

linLayer1.0.bias f4 [64]
000000 3f cb d5 3d 5a d2 2b 3e 93 1a 69 bd aa e1 99 3d
       0.10439157 0.16779462 -0.05691011 0.07513745
000010 2b 0f a7 3d 80 55 87 bd 92 0b 85 bc d3 f5 62 bd
       0.0815719 -0.06608105 -0.016240869 -0.055410217
000020 50 0c fa 3c c6 8d e5 bd 71 93 84 3d 89 c2 b4 3d
       0.03052345 -0.11208682 0.06473435 0.08826167
000030 29 b3 79 3c 39 46 79 bc e1 c2 c9 3d 19 b8 dd bd
       0.015240469 -0.015214496 0.09851623 -0.108261295
000040 b4 f1 49 3d d4 d5 a2 bd ed a3 83 bc 76 84 ac 3c
       0.04930277 -0.07950941 -0.016069377 0.021059256
000050 3b 3a 57 bc 64 50 0e be e9 aa b3 bd 4f 58 0a bb
       -0.013136442 -0.13897854 -0.08772833 -0.0021109765
000060 37 a3 e3 3d 7d 0d 4c 3d 48 fa 05 3e 02 2a 07 bc
       0.11115115 0.04981755 0.13083756 -0.008249762
000070 9c 7a 0d 3d 53 95 f3 bd d3 c2 3d be 0d a9 9a 3d
       0.034540758 -0.11893716 -0.18531351 0.07551775
000080 28 d3 a9 bd 9f 82 90 3d 0a 95 39 bd 2e 6c 20 bd
       -0.08292228 0.07056164 -0.04530815 -0.03916567
000090 e3 a9 57 3d ab 08 40 bc 4e 82 b6 bc 30 0e af 3d
       0.05265225 -0.011720817 -0.022278931 0.08547628
0000a0 b3 af 68 bd 35 dc 81 3d 7b 93 cd 3d 9f 27 4a 3e
       -0.056808185 0.06340829 0.10037895 0.19741677
0000b0 91 fe c8 3d 55 32 f8 bd 8d 47 85 bd 39 71 09 3e
       0.0981418 -0.12118975 -0.06507788 0.13422097
0000c0 09 32 16 3d c0 7d 58 3c 1d cb 63 bd 92 c0 8d 3d
       0.03666881 0.013213575 -0.055613626 0.069214955
0000d0 df a4 09 3e 87 25 1d bd ca a4 42 bd 86 6f f1 3d
       0.134418 -0.038365867 -0.047520436 0.117888495
0000e0 11 44 11 3e e1 5d f8 3c e8 cd b0 bb 00 b1 b2 bd
       0.14186122 0.030318202 -0.0053956397 -0.08725166
0000f0 66 d7 da 3d 3a d9 a9 3d 16 49 8f 3b 2a d9 3e be
       0.10685615 0.08293386 0.004372726 -0.18637529

linLayer1.2.weight f4 [64, 64]
000000 5c 0e 0d bd 83 7e aa 3d 13 70 d3 bd d1 eb de 3d
       -0.034437522 0.083249114 -0.10324111 0.10884822
000010 20 20 e5 bd a8 cf 17 bd 5a d3 e5 bd 86 e2 c6 3d
       -0.11187768 -0.03706327 -0.11221953 0.09711175
000020 50 23 cc bd e7 b5 8e bd 40 ad f4 3d 3d 31 60 3d
       -0.09967673 -0.06968289 0.11947107 0.054734457
000030 8a 0e c3 bd 8a fe c5 ba ef f8 88 3d 9a c3 bc bd
       -0.095242575 -0.0015105766 0.06688105 -0.092169955
000040 43 a7 c1 3d 2e 1f 82 bd 4d fc ba bd 41 48 e0 3d
       0.09455731 -0.06353603 -0.09130154 0.10951281
000050 6b eb 15 3e 9d 7f ee bd 82 63 09 3e 28 db ef 3d
       0.14640586 -0.11645434 0.13416865 0.117117226
000060 6c c6 09 bd 15 57 aa 3d 53 31 dd 3b 51 56 1d be
       -0.033636495 0.08317391 0.0067502647 -0.15364958
000070 8c 67 cb bc 85 cb bb bd 56 c9 3e 3b 41 49 9b 3d
       -0.024829648 -0.09169678 0.0029111705 0.075823314
000080 34 ab 8b 3d 4d 9a 62 3d 2b b4 37 bc 08 e5 eb 3d
       0.06819764 0.055322934 -0.011212389 0.115182936
000090 e9 c4 d3 bc f0 0a 9b 3d 82 4e f4 bd 20 bd c4 bb
       -0.02585073 0.075704455 -0.11929037 -0.006003991
0000a0 5b 2d e6 3c 29 c2 e1 bc 45 0b bd bd 0f 33 fa 3c
       0.028097799 -0.027558403 -0.09230665 0.030541925
0000b0 83 d5 93 bd e5 64 c6 bd d5 19 91 bd 10 9b d0 bd
       -0.072184585 -0.09687213 -0.07085005 -0.10185826
0000c0 78 25 61 bd 54 61 6c 3d 25 4f 1e bd cd 9b 05 be
       -0.054967374 0.057710007 -0.038649697 -0.13047715
0000d0 7e f7 fb bd e1 59 a6 3d 87 b8 e3 3d e8 1a 7b 3c
       -0.12303065 0.08122612 0.1111918 0.015326239
0000e0 fc 8b db 3c e6 fd 03 bd ef 30 14 3e 9f 8c 43 3d
       0.026800148 -0.03222456 0.14471792 0.04774153
0000f0 de d4 ba bc c5 f3 29 3d fe 5c 57 3d 77 3e 76 3b
       -0.022806581 0.041492242 0.05257892 0.0037573853
000100 af c7 a9 3d 17 f6 5d bd 10 12 4d bd ad 6a 8d 3d
       0.0829004 -0.054189768 -0.050066054 0.069051124
000110 61 5b 0b 3e e5 9f 95 3d d6 45 20 bc 8d 37 58 bd
       0.13609077 0.07305888 -0.009782275 -0.052787352
000120 a4 cd 6d bb d9 ba c6 3c 32 cf 61 3d 6a 32 95 3a
       -0.0036285901 0.024259018 0.055129237 0.0011382822
000130 88 bb 28 bd 4d 2e 09 bd fc 44 b3 3b bc bf 17 3d
       -0.04119447 -0.03349142 0.00547087 0.037048087
000140 0b b9 60 bc a3 28 a9 bd 47 fb df 3d c8 2f d7 bc
       -0.013715993 -0.08259704 0.10936599 -0.026267901
000150 2d e6 0c 3d 78 a7 c0 3d 45 b0 c6 3d 05 e4 d5 bd
       0.0343992 0.09406942 0.097015895 -0.10443882
000160 39 91 28 bd ed eb 4a 3d d4 3f 58 bd 97 07 ed 3d
       -0.04115412 0.049541403 -0.052795246 0.11573713
000170 3d 26 9d bd b3 27 91 bd 66 12 b7 3d 54 bb f4 3d
       -0.07673309 -0.0708765 0.08939056 0.119497925
000180 9b 7c ab 3d cc 01 f7 bd 6c f2 c0 3d 21 9c c8 bd
       0.08373376 -0.120608896 0.09421238 -0.09795404
000190 69 ee cc bd aa 3b 1b 3d 38 8b f8 3d 8d 5d 9d 3c
       -0.10006411 0.037898697 0.12135929 0.019209648
0001a0 36 c0 25 3d de f8 be 3d 4a 46 ad 3d ad 57 d5 3c
       0.04046651 0.093248114 0.08460672 0.026042784
0001b0 0e 29 07 3c d5 14 e7 3d 26 cb 9c 3c 77 df 9e 3d
       0.008249534 0.1128327 0.019139837 0.07757466
0001c0 da b1 95 bc 93 94 a8 3b 2a dc 8f 3d f3 ee 4b bd
       -0.018273283 0.0051446646 0.07024415 -0.049788427
0001d0 87 d5 28 3d d0 f2 d7 3d be ca 74 3c 9a ce e9 bd
       0.04121926 0.1054436 0.014940916 -0.11416359
0001e0 90 d9 e1 3c 15 0e cf 3c 16 11 90 3d 90 a8 0b 3d
       0.027569562 0.02527527 0.07034509 0.0340963
0001f0 00 e7 94 3d 43 df 54 bd 26 f1 23 3d fa 86 e8 b8
       0.07270622 -0.05197073 0.0400249 -0.000110877634
000200 0c e9 94 3d 4b 50 0c 3d 43 df c6 ba 53 2a 1c bc
       0.07271013 0.03425626 -0.0015172738 -0.009531575
000210 fb 4d 86 3c 2b ec d7 bb 6e 61 f3 bd ef 40 e0 3b
       0.016394606 -0.0065894327 -0.118838176 0.006843678
000220 79 d1 83 bd 78 c3 82 bb 1d 45 df 3d 58 96 7f 3c
       -0.06436438 -0.003990587 0.10901854 0.01559981
000230 c7 89 65 3d f2 f7 19 bd 7d 62 33 bd e2 3c 02 be
       0.056039598 -0.037589975 -0.043795098 -0.12718537
000240 81 13 ac 3d 28 54 23 bd d7 d1 bd bd 5e ed c6 3a
       0.084021576 -0.03987518 -0.092685394 0.0015176942
000250 8a 83 41 3d bc 74 3c 3d 90 15 21 3d 19 02 0c bd
       0.047244586 0.046009764 0.039327204 -0.034181688
000260 7b 51 b8 bd c5 c0 9a 3d b5 75 8b bc 29 e9 81 bd
       -0.08999916 0.07556299 -0.0170239 -0.063433
000270 57 68 aa 3d b9 64 dc bd 7e 4e 87 3d cb 55 48 bd
       0.083206825 -0.10761399 0.06606768 -0.048909944
000280 87 ca 3b 3d 4b 4d 1d bd 78 5f 30 3b a8 d5 9e bd
       0.045847442 -0.03840379 0.0026912373 -0.077555954
000290 6e e5 c0 bd 13 d4 5b 3d 74 fd 60 3d 86 a7 69 3c
       -0.0941876 0.053669047 0.05492921 0.014261132
0002a0 3e ca 80 3d d7 ff a4 bd 34 0e 15 3d 1d 5b fa bd
       0.06288575 -0.0805661 0.0363905 -0.1222441
0002b0 e3 85 e8 3d 01 3e 2d bd 65 65 d2 bc 17 bb 7b 3d
       0.11353662 -0.04229546 -0.025683114 0.06145772
0002c0 38 84 25 3e e3 29 ec bd ed 36 c8 3d 8e 50 57 3c
       0.16163719 -0.11531427 0.09776101 0.013141764
0002d0 c1 34 a4 bd 8c fb 01 3d ff a4 f6 3d e9 a0 e3 3d
       -0.080178745 0.031734034 0.12043189 0.111146756
0002e0 44 e8 ac bd a6 0a 04 bc f8 63 a3 bd f0 f5 85 bd
       -0.08442739 -0.008059179 -0.07978052 -0.065410495
0002f0 15 43 a0 3d 18 a1 c0 3d 03 44 1a be c8 11 0c be
       0.07825295 0.09405726 -0.15065007 -0.13678658
000300 0d c3 d3 bd b6 46 cb bd b1 6a 58 3d 61 32 0b bb
       -0.10339937 -0.099255964 0.052836124 -0.0021239745
000310 8f 4a 92 3d 93 6c 0f bc 2b 7c de bc 78 8b da bd
       0.07143127 -0.008753913 -0.027158817 -0.10671133
000320 03 2b ba 3d 4b 0b f9 bd ce 81 60 3c 5c 5f e7 3d
       0.09090235 -0.12160357 0.013702823 0.11297485
000330 5e 9b 23 be 1c ca f9 3d 33 db 87 bc e4 09 f6 bd
       -0.15977237 0.121967524 -0.016584015 -0.12013605
000340 d5 22 0e 3e 69 5f 9d 3c d4 09 82 bd 20 0e ac 3c
       0.13880475 0.019210534 -0.06349531 0.02100283
000350 f3 66 53 bd a5 66 d6 3d 55 e2 12 bb af 9f ca bd
       -0.051611852 0.10468797 -0.0022412736 -0.098937385
000360 9f 07 a7 3d a7 d6 06 3d 05 bc 1a 3b 9c c1 2e 3e
       0.081557505 0.032919552 0.0023610604 0.17066044
000370 b2 34 ba bd da 3b 06 3e 4f b7 0a bd ab 82 22 3d
       -0.09092082 0.13108769 -0.033866223 0.039675396
000380 c3 d9 10 3e a8 1e b7 3c 8f 0b a5 3c 1a 50 8b 3b
       0.1414557 0.022353485 0.020147113 0.004251492
000390 16 26 7c 3d d3 e3 c6 bc cf 5c 44 3d 8b b8 94 bd
       0.06155976 -0.024278557 0.04794007 -0.07261761
0003a0 6e 7a c5 3d dc eb 0f 3d cb 6c 8f 3d f8 bd 54 3d
       0.09642492 0.035137042 0.070031725 0.05193898
0003b0 01 f1 7e bd 12 44 a5 bd 9d 3a 82 bd d4 82 84 bd
       -0.062241558 -0.08069624 -0.06358836 -0.06470266
0003c0 dd 74 22 3d eb da db 3c 35 af 63 3d 79 db 9a 3d
       0.03966223 0.026837787 0.055587012 0.07561392
0003d0 d7 9d 82 3c c7 41 3c 3d 8e 91 65 3d 16 ae 09 3d
       0.015944405 0.045961168 0.056047015 0.033613287
0003e0 29 ed 03 bd 52 3a 68 3c 0c 91 0e 3d 10 74 f0 3d
       -0.032208595 0.014174061 0.034806296 0.11740887
0003f0 59 28 9a bb ad 58 b4 39 53 d6 80 3d 68 3c a0 3d
       -0.004704517 0.00034398344 0.06290879 0.078240216

linLayer1.2.bias f4 [64]
000000 fd 76 ad 3c 0f 80 fd 3c 6c 34 e8 bc 79 0e 22 3d
       0.021174902 0.030944852 -0.02834531 0.039564583
000010 48 d3 c5 3d e8 a3 80 3d 15 7b 4d 3d dd 13 8a bd
       0.09659439 0.06281263 0.05016621 -0.0674207
000020 7c ba 93 3c fe 80 bb 3d 47 e6 c6 3b 01 c0 96 3d
       0.018033259 0.09155463 0.0060699317 0.073608406
000030 30 a9 8c 3d 81 07 b4 3d 59 0d d5 3d fb ff 61 bd
       0.068682075 0.08790494 0.104029365 -0.055175763
000040 4f 4b eb bd 17 81 fc 3a 3a ec a6 3c a0 69 3a bd
       -0.11488973 0.0019264546 0.020376313 -0.045510888
000050 79 e0 4a 3d 62 a6 25 bd 88 35 84 bd ca a5 82 3c
       0.04953048 -0.04044188 -0.06455523 0.015948195
000060 5f 20 e0 3d a9 fc 9d 3d 06 3c 21 3e 1d fc a5 bd
       0.10943674 0.07714207 0.15745553 -0.081047274
000070 ae f3 2c 3d e3 88 87 bd 91 ac 2c bd cf 69 b9 bd
       0.04222458 -0.06617906 -0.04215676 -0.090533845
000080 41 6a 60 bb d3 b1 a2 3c d5 27 28 3b b4 f6 7b 3d
       -0.003424302 0.019860184 0.0025658507 0.06151457
000090 2f 9a b7 3c 24 1d 1b bd 30 f0 5b ba dc 50 a2 bc
       0.022412388 -0.037869588 -0.0008389978 -0.019813947
0000a0 f7 4c ac bc d3 a7 9f 3c 2b ba 09 bd a4 a3 38 3c
       -0.021032793 0.019489205 -0.03362481 0.011269484
0000b0 58 19 90 bd 11 9e fa 3c d0 24 54 b9 43 f8 2f 3d
       -0.07036084 0.03059295 -0.00020231609 0.04296137
0000c0 c9 f9 d3 3d 76 64 a4 3d e7 b9 f2 bd 29 8d 1a 3e
       0.10350377 0.08026974 -0.11851864 0.15092911
0000d0 19 52 8d 3c c4 d5 da 3d e2 65 8a 3d 56 c6 86 bd
       0.017251061 0.10685304 0.06757714 -0.06580798
0000e0 11 b8 d4 3d ee e0 f0 3d e2 74 51 3c a5 ac a6 bd
       0.103866704 0.11761652 0.012784215 -0.08138398
0000f0 f0 76 af bd bc 7d 83 bc 02 48 0c bc 28 98 d1 bd
       -0.085676074 -0.016051166 -0.00856209 -0.102340996

linLayer1.4.weight f4 [32, 64]
000000 8a 52 45 bd 6f 73 11 be 74 59 9c 3d da d5 ba bd
       -0.04817442 -0.1420419 0.07634249 -0.0912282
000010 d2 65 73 bd 09 fd 6e 3c c1 cd e4 3d 1d b7 bb bc
       -0.059423275 0.0145866955 0.11172057 -0.022914464
000020 45 84 5e 3d fe 78 d0 3d 22 76 01 be e4 cc 09 3e
       0.05432536 0.101793274 -0.1264272 0.13457066
000030 02 39 13 3c 14 0a f4 bd 96 38 22 3d 7f f9 8b bd
       0.00898576 -0.11915985 0.039604746 -0.06834697
000040 43 93 54 3d bd 41 65 bc 8e 14 a3 3c c1 87 cb bd
       0.051898252 -0.013992724 0.019907262 -0.099380024
000050 42 6b 8e bd 0d d5 d9 3d 5d 39 e8 bd 1e b2 12 bd
       -0.069540516 0.10636339 -0.11339066 -0.035814397
000060 e6 47 70 bd 7a 01 da 3d 93 e5 af bd e6 ab 36 3d
       -0.058662318 0.10644813 -0.0858871 0.04459753
000070 4a 41 ed bd 5c 7d 96 bd d8 bc 5e 3d 63 53 18 bb
       -0.115847185 -0.07348129 0.054379314 -0.0023243062
000080 a8 34 bf 3d d1 cf 8b bd 12 f1 f9 bd fe e9 c7 3d
       0.09336215 -0.06826747 -0.12204184 0.09761427
000090 10 e9 20 3e 86 fb 76 bd 0c 76 77 bd 1e 41 b3 bd
       0.15713906 -0.060298465 -0.060415313 -0.087526545
0000a0 78 33 8b bd 80 2f 7c 3c a9 f8 34 3d 7c 7c 80 3d
       -0.06796926 0.015392184 0.044182453 0.062737435
0000b0 53 22 7f bc 8f bc 94 bd e6 61 d3 bd 41 aa e1 bd
       -0.015572148 -0.07262527 -0.10321407 -0.110188015
0000c0 5c 3d 70 bd 3c 7d 6b 3d 62 37 cf 3d f0 5f 10 bd
       -0.058652267 0.05749248 0.10117985 -0.035247743
0000d0 44 90 f3 3d 17 93 85 3c 05 d0 b8 3d 6c 6c 89 bd
       0.11892751 0.01630549 0.090240516 -0.06710133
0000e0 fc ee 0a bd 07 f3 02 be 29 6b 67 bd c9 3c 53 3d
       -0.03391932 -0.1278802 -0.05649868 0.05157164
0000f0 4c c6 05 3c 65 a0 51 bd b9 a6 03 be 29 10 ad bc
       0.008164953 -0.051178355 -0.12856568 -0.02112587
000100 08 1f 11 bb 1e 0a 9f bb 96 17 30 3c 34 a6 46 3d
       -0.002214374 -0.004853501 0.010747811 0.048498347
000110 7d 5b e4 3c 39 bd 12 bc 8c 34 88 3d 9e f7 13 bd
       0.027875656 -0.008956247 0.066506475 -0.036124818
000120 05 fb 35 bd 07 28 a0 3d f7 51 91 3d da ef c4 3d
       -0.044428844 0.078201346 0.07095712 0.096160606
000130 ba c8 23 3c 5f 7b f1 bd 62 23 dc bd 28 ca a3 bd
       0.009996587 -0.11791109 -0.10748936 -0.079975426
000140 85 8a 8a 3b 2e e1 83 3d 97 01 19 bd 31 74 1c ba
       0.0042279386 0.06439434 -0.03735503 -0.00059682416
000150 b1 25 8b 3b bd f0 d0 bd 9d 68 c6 3d 7c c5 fc 3d
       0.0042464365 -0.10202167 0.09687922 0.12342355
000160 d7 80 bb 3d 3b 04 b2 bd f7 00 75 bd 39 5c d9 3c
       0.091554336 -0.08692213 -0.059815373 0.026533233
000170 1d 3e 88 bd 37 04 21 3d 75 4b 8c 3c 4b 21 c3 bd
       -0.06652472 0.03931066 0.017125824 -0.095278345
000180 11 f7 eb bd 32 af f3 3c d6 50 5d 3c db 4e af bd
       -0.115217336 0.029746626 0.013508042 -0.08559962
000190 42 2b 5e bc 6b 6e 47 bc 0f 20 49 3d e5 45 af bd
       -0.013560118 -0.012172322 0.04910284 -0.08558253
0001a0 ca 00 c5 bd c6 e8 bf 3d 0c 34 fc 3d e9 4c b9 bc
       -0.09619291 0.0937057 0.12314615 -0.022619681
0001b0 ce 5e 02 3d d6 35 b2 3d 2f f3 9d 3d fe e7 00 be
       0.031828694 0.08701675 0.07712399 -0.12588498
0001c0 d9 b9 80 3d ab 52 f1 bb 7c c3 b1 bd 35 58 ed bb
       0.062854476 -0.007364591 -0.08679864 -0.007243181
0001d0 6b b0 aa bd e0 8a 03 3c 3e 42 f6 bd b6 99 8a bb
       -0.0833443 0.008028716 -0.120243534 -0.0042297496
0001e0 58 78 27 bd ea b8 63 3d 86 58 72 bd 1e 2f c2 bd
       -0.040886253 0.05559627 -0.059166454 -0.09481643
0001f0 0e 66 67 3d d2 95 92 bd 1b f0 9a 3d 1c 28 f7 3d
       0.05649381 -0.07157482 0.07565328 0.12068197
000200 45 69 58 3d ae 13 ca bd 92 9b 30 bd c9 a3 d3 bd
       0.052834768 -0.09867035 -0.043117113 -0.10333974
000210 07 6a 7f bd d2 07 a8 bd c3 c2 eb bd b9 be 0e bd
       -0.062356975 -0.082046166 -0.11511757 -0.034849856
000220 7d 9e c5 3c 27 27 d4 bd db c3 5b 3d 02 cd 49 bc
       0.024123425 -0.1035903 0.05365358 -0.012316944
000230 d5 aa 83 3d 3a 6a 16 bd 49 62 4a bd 99 cb 2e 3e
       0.06429068 -0.0367224 -0.04941014 0.17069854
000240 ad cd e0 3d be b5 9e bd 89 93 12 3d a9 79 09 be
       0.109767295 -0.07749508 0.03578523 -0.13425316
000250 65 3e 5f bc 48 77 9d 3d f6 71 ba 3d 02 4d 11 bd
       -0.013625716 0.07688767 0.091037676 -0.03547383
000260 bd 5a 98 bd 4a a8 6b 3d 07 b2 37 3e 94 0b fa bc
       -0.07439182 0.05753354 0.17939006 -0.030523099
000270 e9 fe 0b be 63 33 42 bd e3 51 ff bd 82 f4 52 3d
       -0.1367146 -0.047412287 -0.124667905 0.051502712
000280 9f 57 88 3d 78 ac af bd e2 d4 af bc f0 b8 cb 3d
       0.066573374 -0.08577818 -0.021463815 0.099473834
000290 b7 27 5b bd cb 51 c1 3d f9 ff 60 bd ea 86 d8 bd
       -0.053504672 0.09439429 -0.054931615 -0.10572608
0002a0 81 1d e6 bd e7 47 41 3d 0b 32 ac 3d a8 70 33 bd
       -0.11236096 0.047187712 0.084079824 -0.04380861
0002b0 13 a3 55 3d 8d 68 8a 3d fe 25 a8 bd 9b ff 68 bc
       0.052157473 0.06758223 -0.082103714 -0.014221097
0002c0 92 70 a0 bd b2 6c 69 bd d8 7c 5d 3c f4 1a 88 3d
       -0.07833971 -0.056988426 0.013518535 0.06645766
0002d0 0d dd 6b bc 8a 39 da 3d ca c3 a4 bd 31 05 6d 3d
       -0.014395964 0.10655506 -0.08045156 0.05786628
0002e0 49 e6 20 3d 09 77 af 3c 7d ac 17 3d b2 ba 53 3d
       0.039282117 0.021419065 0.037029732 0.05169172
0002f0 51 ed 3d 3d f0 06 ab bc 80 17 2f bd 0f ed 95 3d
       0.0463689 -0.020877331 -0.04274702 0.07320606
000300 0c 44 5c 3d 57 7a ad bd 08 62 f0 bc f6 4a a9 bd
       0.053775832 -0.084706 -0.02934362 -0.08266251
000310 c1 b4 c4 3d 29 db 3b 3d 22 99 f7 bd 58 e6 cd bc
       0.096047886 0.045863304 -0.12089755 -0.02513425
000320 ed 63 b4 bd a8 a2 a6 3c e7 37 bb 3d 91 59 dc 3d
       -0.08808122 0.020341232 0.09141522 0.10759271
000330 14 25 32 3c 82 7a 1c 3d e2 c9 26 bc 0d 7f 2f 3d
       0.010873098 0.03820277 -0.010179969 0.042845774
000340 ce 15 c3 3d 4e c0 ad 3d 5c 05 8d 3d 0c b8 ae bb
       0.09525643 0.08483945 0.06885788 -0.0053319987
000350 c5 cd 02 3d 0b 14 4c 3d 6e 5e 27 bd da 66 c2 bd
       0.03193452 0.049823802 -0.04086154 -0.09492274
000360 d2 d6 85 bd c0 3c aa 3d 83 e7 4a 3d dc 5e aa 3d
       -0.06535114 0.083123684 0.049537193 0.08318874
000370 ce 97 2d bb 59 fb af bc 44 da 9b bd 20 03 c3 bd
       -0.0026488188 -0.021482157 -0.0760999 -0.095220804
000380 d4 2f ad bb 70 b8 10 3e 2a aa a1 3d 92 5d 2f 3d
       -0.0052852426 0.14132857 0.07893784 0.042813845
000390 d5 2b 26 b8 93 8f b9 bd 44 80 1d bd 18 0c f3 3d
       -3.9618306e-05 -0.09060588 -0.0384524 0.11867541
0003a0 6a 7a fd bd bb 5a f8 bd 96 e7 12 3c ca ad 95 3d
       -0.12376864 -0.121266805 0.008966347 0.07308538
0003b0 c3 c0 81 bc 2b 9f ee 39 42 e8 7d 3d 84 f0 c9 bd
       -0.015838986 0.00045513487 0.061989076 -0.09860328
0003c0 12 b3 fc 3b 08 8c bf bd 72 2d 02 3d bc 8e 12 39
       0.0077117765 -0.09352881 0.03178162 0.00013976818
0003d0 a2 98 3d bc b4 e4 a4 3d da 60 93 bb f8 df 3e bd
       -0.011572035 0.08051434 -0.0044976296 -0.046600312
0003e0 37 e2 81 bd 46 12 9e 3d 9d 14 77 bd 4a 3f 5b bd
       -0.06341975 0.07718329 -0.060322393 -0.053527154
0003f0 2d ca ff 3c b6 e7 d0 bd a9 3f cc 3d 71 d3 f2 bd
       0.031224335 -0.10200445 0.0997308 -0.118567355

linLayer1.4.bias f4 [32]
000000 85 55 03 be 35 b9 bd 3d e5 bc a5 bd e1 72 9f bc
       -0.12825592 0.09263841 -0.080926694 -0.019463958
000010 ce 8e da 3d ff 8a 88 3d 20 14 d6 3d 19 86 f2 3d
       0.10671769 0.066671364 0.10453057 0.11841983
000020 ce 53 99 3c 90 db 07 be 65 b0 eb 3a dd 90 7d 3d
       0.018716719 -0.1326735 0.0017981647 0.06190573
000030 2e 2b 8c 3d f4 42 90 bc 0f fd 9b 3d e8 4e 90 3d
       0.06844173 -0.01761005 0.076166265 0.070463
000040 a0 e7 8e 3c 11 05 7e bc 13 bb a1 bc 70 7e 16 bd
       0.017444432 -0.015504138 -0.019742524 -0.036741674
000050 c3 00 c4 bd bb 18 a9 bd b5 21 d7 3c 1e dc c4 bc
       -0.09570458 -0.0825667 0.02626119 -0.024030741
000060 3b 90 89 3c 81 9f c5 bd 2e 39 aa bd de f1 f8 bc
       0.016792407 -0.096495636 -0.083116874 -0.030388769
000070 5c 02 db 3d 47 4a 46 3d 18 cd 29 bc 8a e0 a3 3d
       0.106938094 0.04841068 -0.01036384 0.08001812

muLayer.0.weight f4 [1, 32]
000000 c8 0e 15 bd 8c 1a 88 bb ca 71 c1 3d 47 b0 a1 3d
       -0.03639105 -0.0041535553 0.09445532 0.0789495
000010 86 d2 a8 bd e4 54 de bb 34 da fd bc 8f 6b 93 bd
       -0.08243279 -0.006785022 -0.030987836 -0.071982495
000020 65 3c 18 be 3c bb 2a 3d 83 20 c8 bd e9 0c 70 bd
       -0.14866789 0.041682467 -0.09771826 -0.058606062
000030 8b 1d f6 3d 0d 4d 9e bb 25 0d 11 3e 09 bf b4 3c
       0.120173536 -0.0048309625 0.1416517 0.022063749
000040 4d 63 64 3d 8a 24 9c 3d 96 f5 63 bc a8 d1 a1 3d
       0.055758763 0.07624157 -0.013913533 0.07901317
000050 bb 10 01 be 64 47 07 bd fa c0 2e bd 05 67 22 3b
       -0.12604038 -0.033027068 -0.042664506 0.0024780643
000060 31 f7 ee 3c 4d cb 12 3e 57 2b 30 3d b9 72 ac bd
       0.029170604 0.14335366 0.043010082 -0.08420319
000070 99 8d 31 be c6 f2 c3 3d 92 45 08 bd d2 c1 50 bd
       -0.17339171 0.0956779 -0.033269472 -0.05096609

sigmaLayer.0.weight f4 [1, 32]
000000 7b 85 bc bd 59 a1 f6 b9 da 95 cb 3c 14 6f 04 be
       -0.09205147 -0.0004704099 0.024851728 -0.12932998
000010 41 3d 2c bd 1e b7 6f bd 05 88 89 3d ee 2f 9a bc
       -0.042050604 -0.058524244 0.06715397 -0.018821683
000020 4d b3 e0 bd d8 73 d6 bd 4e 87 e3 3c b0 2f d7 bd
       -0.10971699 -0.10471314 0.02777448 -0.105071425
000030 68 56 87 3c 1a b4 d6 3d 3b 2c 9b 3d 01 cb 23 3e
       0.016520694 0.104835704 0.07576796 0.15995409
000040 fd f9 a9 3d b5 de 30 3b cf df ea bd c5 cc f6 bc
       0.082996346 0.0026988212 -0.11468469 -0.030126939
000050 8b 0e ff bd 88 ea 20 be 72 d1 d1 bc 68 80 5c 3d
       -0.12453946 -0.15714467 -0.025612567 0.053833395
000060 78 d5 15 bc 74 ca 2c 3e c8 5b 2d 3c 75 c7 d7 bd
       -0.009145133 0.16874105 0.010580964 -0.1053609
000070 5b 21 b6 bd f8 92 f0 bd 4d 2a 14 be 01 d5 ac bd
       -0.08893081 -0.11746782 -0.14469261 -0.08439065
