model-ppo/from-paper/InvertedPendulum-v4_critic.pt (torch, 37482 bytes, 9 tensors)

inLayer.0.weight f4 [32, 4]
000000 6c c3 a8 3c 6a 86 a6 3e df 2e 8e 3e ec 51 19 be
       0.020600997 0.32524425 0.27770135 -0.14972657
000010 1a db 0f be 73 1b 87 3e 80 cc 1b 3e cc 54 9c be
       -0.14048424 0.2638813 0.1521473 -0.30533445
000020 af 56 0e 3e 2c 64 89 3b cb 10 10 3e 42 2a aa 3e
       0.13900255 0.0041928496 0.14068906 0.33235365
000030 9a a2 65 bd 1b 88 8c be 1d 6b b5 3e c1 aa 4c bd
       -0.056063272 -0.2744759 0.35433283 -0.04996753
000040 9b 39 e3 be 2b 78 78 3e 0c d1 e9 3d 2a f1 e2 3e
       -0.44379887 0.2426459 0.11416826 0.4432462
000050 32 bb da be 02 99 c5 be 76 45 70 3e 0e ff 00 3d
       -0.42720944 -0.38593298 0.23463997 0.03149324
000060 9c 29 c6 3e 7e ab 64 3e 4d 05 90 3e 67 1f a5 3e
       0.3870362 0.22331044 0.28129044 0.3225052
000070 13 ea ca bd c5 f5 39 3e ff 23 c3 3d 6d 2f 02 bf
       -0.09907927 0.1816016 0.0952835 -0.50853616
000080 03 a7 25 3c 60 f2 d0 be 0d 3a 3f bd f5 19 f1 be
       0.0101106195 -0.40809917 -0.04668622 -0.47090116
000090 05 46 c7 be dc c9 d3 3e 91 13 b7 3d 65 7e bc be
       -0.38920608 0.41364944 0.08939279 -0.3681518
0000a0 4d c4 81 be 70 71 d4 bd d7 a0 07 3f 85 c3 09 be
       -0.25345078 -0.10373199 0.529798 -0.13453491
0000b0 6e fe 88 be b2 74 15 3e 7f 9f ab 3d 2a b4 e8 3e
       -0.26756614 0.14595297 0.08380031 0.45449954
0000c0 da d5 be bd 6f be 96 bd 68 e3 87 be af 0c 6e 3e
       -0.09318133 -0.07360541 -0.26540685 0.23247026
0000d0 02 0b 57 be 58 d3 40 be 0c 5e 80 be 0b c4 b0 be
       -0.21000293 -0.18830621 -0.25071752 -0.3452457
0000e0 8b 46 f6 be 68 00 11 3d cd 2d 01 bf cd 94 32 3e
       -0.48100695 0.035400778 -0.5046051 0.17439575
0000f0 07 9e d8 be ba 60 51 bc 78 f6 e0 be de cb 2c 3e
       -0.42308065 -0.012779409 -0.4393804 0.16874644
000100 b0 54 18 3e c8 c7 b6 bd 07 fb 36 3b fa af c4 be
       0.14876056 -0.08924824 0.002792062 -0.3841551
000110 76 28 fc 3c 95 82 4f 3e 60 0a ff 3d d8 69 44 be
       0.030781012 0.20264657 0.12453151 -0.19181001
000120 1c c3 48 3e 06 42 2a 3e d2 23 bd be 5c 09 b5 3d
       0.19605678 0.16626748 -0.3694139 0.08839676
000130 e7 f5 8b be a5 0f 00 be 7e 32 d5 3e 8d cc 64 3d
       -0.27336046 -0.12505968 0.41640085 0.055859137
000140 cd 02 ea 3d 23 ad e9 be b2 14 c9 3e 08 1c 19 bc
       0.114263155 -0.45639905 0.39273602 -0.009345062
000150 27 62 ae be 56 1a cb be c1 33 e9 3e 25 a8 9e be
       -0.3405926 -0.3966853 0.45547298 -0.3098766
000160 a3 0b 03 3f 72 5c 0c bf dc 85 d0 3e 4d a1 a8 3e
       0.5118963 -0.5482856 0.40727127 0.32935563
000170 26 70 89 3b 35 36 71 bc 35 b6 86 3e 46 41 59 be
       0.0041942773 -0.014722397 0.26310888 -0.21216306
000180 83 ac 31 3e d3 b7 11 be a2 e4 2e bd 50 94 43 be
       0.17350964 -0.1423028 -0.04269851 -0.19099545
000190 cd 9a a4 be 03 44 2c 3e bd f4 98 3e ed b3 03 3e
       -0.32149354 0.1682282 0.2987422 0.12861605
0001a0 bc 8b a8 3e 09 21 ab 3e a4 31 f5 3e fb cf 8d bd
       0.3291911 0.3342364 0.47889435 -0.06924435
0001b0 c6 18 3a bd ad c5 67 be d6 33 16 be 8e eb b4 3d
       -0.045433782 -0.22634001 -0.14668211 0.08833991
0001c0 50 c5 3f 3e a4 f3 81 be b3 cb 18 3e c1 ab 90 3e
       0.18727612 -0.25381196 0.14921455 0.28256038
0001d0 9c 2d 9e be 79 4f f4 be 3b bb d0 3e f9 4c b6 3e
       -0.30894172 -0.47716883 0.40767846 0.356056
0001e0 49 be 91 3c 83 0e 9f 3d 0c 12 f1 3e ae b1 df 3e
       0.01779093 0.0776644 0.4708408 0.43690246
0001f0 1c e0 47 be 0d c0 5c be 44 1a 4a 3d 7e ce 23 3e
       -0.19519085 -0.21557637 0.049341455 0.1599674

inLayer.0.bias f4 [32]
000000 a6 4d 78 bd 87 af ff 3e c5 a4 e4 3e fa 2b ca 3e
       -0.060620926 0.49938604 0.4465696 0.39486676
000010 e8 71 ff 3d d5 bd 05 3e ea 45 84 be 17 e6 7f 3e
       0.12472898 0.13060696 -0.2583459 0.24990116
000020 2a a6 41 3e 35 13 e6 be f0 db ed 3e 2b 84 da be
       0.18911043 -0.4493653 0.46456861 -0.4267896
000030 da e5 fa 3e b8 a3 e0 be d3 5e a3 3e 91 3a 65 3e
       0.49003488 -0.43874907 0.31908283 0.22385623
000040 a8 3e 30 3d 97 7c c0 3d 3d 4c 4c bd d3 8c aa 3e
       0.043028504 0.093987636 -0.049877394 0.33310565
000050 9a 3a ee 3e ed ca ca be a9 af 08 be e4 3f d4 3d
       0.46529084 -0.39607945 -0.13348259 0.10363749
000060 8b b4 99 be 83 99 ae be ad 09 8e 3e 21 6f e8 3c
       -0.30020556 -0.34101495 0.27741757 0.028373303
000070 49 3b 84 3d e8 45 fd 3e 8f 13 ca bd 15 6a 03 bf
       0.0645662 0.49467397 -0.09867012 -0.51333743

linLayer.0.weight f4 [64, 32]
000000 63 69 d7 3d 66 ca 8d bc 3b d3 d2 3d 4d 05 f3 3d
       0.10518148 -0.017308425 0.10294195 0.118662454
000010 00 fb 22 3e 33 13 b4 bd 14 8a 02 3e 69 9f 1e 3e
       0.15916061 -0.087927245 0.12747985 0.15490498
000020 44 2a d2 bd 50 b2 ee bd c1 f6 ee 3d 8e 12 8b bd
       -0.10261968 -0.11655104 0.11668158 -0.067906484
000030 c6 f8 52 3e 62 24 fa bd 93 83 dd 3c 24 ad 15 3e
       0.20602712 -0.12213971 0.027040279 0.14616829
000040 29 69 40 be c8 cf 93 bc 74 06 64 bb 68 36 cf 3d
       -0.18790115 -0.018043414 -0.0034793885 0.10117799
000050 41 05 b1 3d 3b 80 ae bc b8 6d b9 bd 3e 0d 23 3e
       0.0864358 -0.02130138 -0.0905413 0.1592302
000060 98 2b 7c bd be 73 ff 3d 8a 3d b4 bc 26 2f ec bc
       -0.06156501 0.12473248 -0.022002 -0.028831076
000070 35 80 86 3d 47 57 5b 3d c3 c7 bc 3a f6 7c 12 be
       0.06567422 0.05355003 0.0014402795 -0.14305481
000080 c1 0c 1b be 1f 48 13 3e 58 37 2e 3e 0e 28 c5 bb
       -0.15141584 0.14382981 0.170133 -0.006016738
000090 99 bf 07 be e8 7b 1c 3e 4c 49 c2 bd 29 5d 78 bd
       -0.13256682 0.15281641 -0.094866365 -0.06063572
0000a0 91 ad 0a be 96 95 10 3e 22 07 39 3e ee 45 fb 3c
       -0.13542773 0.14119563 0.18069127 0.030672994
0000b0 95 36 b7 bd 0f 22 89 bd 32 4e 2a 3e df a1 a1 bd
       -0.089459576 -0.06695949 0.16631392 -0.078922026
0000c0 68 50 ba 3d 01 6d e5 3c a9 f6 31 be 5c ef 64 bd
       0.090973675 0.028006079 -0.1737925 -0.055892333
0000d0 c5 91 d8 bd 22 e0 fc bd 90 ec 86 bd 58 c0 0f 3c
       -0.10574678 -0.123474374 -0.065880895 0.008773886
0000e0 8c ca 26 3e 66 5f f5 bd 20 ff 26 3e 88 1f b9 3b
       0.16288203 -0.119810864 0.1630826 0.005649511
0000f0 a8 b4 2b 3e fd 08 a9 3c 4a bd 1c 3d 7f 51 f4 3d
       0.16768134 0.020634169 0.038266458 0.11929607
000100 40 ce ed bd 5f 45 a0 3d c3 ad 2a 3e e0 22 38 3e
       -0.11611605 0.078257315 0.16667847 0.17982054
000110 1c 63 fd 3d 84 f2 b3 bc 4d 3f 7c 3d 72 14 5a 3d
       0.12372419 -0.021966226 0.061583806 0.053242154
000120 91 6d b0 bd 5c 9a 3c be e8 19 8c 3d ea 81 b5 3d
       -0.08614648 -0.18418258 0.06840879 0.0886267
000130 0a 3c 06 3e 73 9b b7 3d d1 ec a5 3d dc ea 94 bd
       0.1310884 0.089651965 0.0810181 -0.07271358
000140 94 bb 95 bd fa c6 cc 3d a8 0d 54 3d ae 06 07 be
       -0.07311168 0.09998889 0.051770836 -0.13186142
000150 e2 e0 c4 bd 20 7c 11 3d 23 70 96 bd 38 92 07 be
       -0.096132055 0.035518765 -0.07345607 -0.13239372
000160 d8 75 55 be 42 db fd 3d f8 02 e7 bd ba 3b a8 3d
       -0.20845735 0.12395336 -0.11279863 0.08214517
000170 3c c1 c0 3d 53 b0 2e 3d cf 92 47 be 14 37 c5 3c
       0.094118565 0.042648625 -0.19489597 0.024074115
000180 d7 15 fc 3d 9f 63 81 3d b7 9b 3c 3d 9f 65 1f 3d
       0.12308853 0.06317829 0.04604694 0.038915273
000190 97 ea 36 3d c6 c8 29 bc 1d 2d bd 3d ba 73 ea 3d
       0.044657316 -0.0103628095 0.0923712 0.11447854
0001a0 da 3b 93 3d 07 f6 f7 bc f6 3e 1c 3e 36 a5 3a 3e
       0.0718915 -0.030268682 0.15258393 0.18227085
0001b0 c0 11 70 bd 49 8e 3e 3e 9a 64 1d be ef 23 46 be
       -0.058610678 0.18608965 -0.15370408 -0.19349645
0001c0 80 3b f7 bd 25 b3 18 bd bf 3d e3 bd 1f 0f a7 bc
       -0.120718956 -0.03728022 -0.110957615 -0.020392952
0001d0 18 61 84 3d da fa 0c be aa 49 d3 3d 69 51 16 3e
       0.06463832 -0.13767567 0.10316785 0.14679493
0001e0 2f 5f 50 3c c9 c7 f3 bd bb b4 16 3c 10 a1 05 3e
       0.012718006 -0.1190334 0.009198363 0.13049722
0001f0 d3 65 39 3d 66 56 34 bd 29 cb 91 3c ae a8 c2 3d
       0.045263123 -0.04402771 0.01779707 0.09504829
000200 d0 84 3b 3e 10 13 92 3d b5 ff 74 3d 60 6f 36 3e
       0.18312383 0.07132542 0.059814174 0.17815924
000210 01 ff 94 bc 2e 49 fd 3c b1 4a 8d 3b 14 0c d1 3d
       -0.018188002 0.030918684 0.0043118824 0.10207382
000220 59 d9 16 bd 82 0c c3 bd 8b ef e0 bc 60 0b d2 bd
       -0.036828373 -0.0952387 -0.027457973 -0.10256076
000230 ca 0a 2f 3e 3a 67 88 3d 73 cf 56 bd f4 5e 45 bd
       0.1709396 0.06660314 -0.052443933 -0.048186257
000240 27 6f 56 ba aa 6b d0 3c ca b0 44 bd 39 a6 3e bd
       -0.0008180015 0.025441963 -0.04802016 -0.04654524
000250 de 4f cb 3d c4 4f ee 3c f9 5d 24 be c1 49 3e 3e
       0.09927343 0.02909077 -0.16051473 0.18582822
000260 21 78 74 3d ff bc bd bd d4 2b c7 bd ea 16 87 3d
       0.059684876 -0.09264564 -0.097251564 0.065961674
000270 59 fd b6 3d 4b 13 42 bd 78 d0 ee 3d c9 d2 17 be
       0.08935041 -0.04738168 0.11660856 -0.14826502
000280 18 cc 68 3d 53 84 ae bc de a7 78 3d 42 31 ba bd
       0.056835264 -0.021303331 0.060706966 -0.090914264
000290 a1 62 67 3d d4 cf f9 3d f2 88 b8 3d 63 a9 74 3c
       0.056490544 0.12197843 0.09010495 0.014932963
0002a0 09 59 f9 bd b7 c9 83 bc a9 60 0a 3d 13 2d d0 bd
       -0.12175185 -0.016087396 0.03378359 -0.10164847
0002b0 69 66 49 be ea 54 88 3d 03 7d 03 3e c6 f9 ab ba
       -0.19667973 0.06656821 0.12840657 -0.0013120703
0002c0 fd 67 11 3e fd ee 1f bd c0 b4 b9 bd 59 62 1d be
       0.14199825 -0.039046276 -0.090676785 -0.15369548
0002d0 8c 7b 65 bd 40 3e 41 3e ee ed bb bd f4 15 86 bd
       -0.056026027 0.18871403 -0.09176241 -0.06547156
0002e0 98 e9 42 3e 68 00 d1 bd f4 75 2b be ee b2 a6 bd
       0.19034421 -0.102051556 -0.16744214 -0.08139597
0002f0 93 12 04 3d 26 b8 81 3d 14 f9 b6 bd 60 b0 cb 3d
       0.032244276 0.06333952 -0.08934227 0.0994575
000300 2a df 2c bd 06 2e 12 3e 46 7b 03 bd af 4a 2f bd
       -0.042205013 0.14275369 -0.032099985 -0.042795833
000310 8b f4 ef bd bc 1f c0 bd 82 5d 44 3d 34 7c aa 3d
       -0.11716565 -0.09381053 0.04794074 0.08324471
000320 82 0e 14 3e d6 fd b0 bd 9e 53 78 bd 30 5c d4 bd
       0.1445866 -0.08642165 -0.06062662 -0.10369146
000330 d9 05 5d bc 63 9c cb 3d 61 62 85 3d 54 06 b5 3d
       -0.013490164 0.09941938 0.06512905 0.088390976
000340 42 62 cd bd 08 34 bd bd 62 78 86 bd af e4 e4 bd
       -0.10028507 -0.0923844 -0.0656593 -0.111764304
000350 f2 0c 3c bc 3d a0 e9 bd c3 ea 8c bd 90 e2 1f 3e
       -0.011477696 -0.11407516 -0.06880715 0.1561377
000360 b6 47 72 bd 70 19 c9 bd 0f 5b 5e 3d 80 cf 14 3e
       -0.05915042 -0.09819305 0.05428606 0.1453228
000370 db a0 f6 bd 8b 09 b1 bd 26 1d 2a bd 14 10 2a be
       -0.120423995 -0.08644398 -0.041531704 -0.16607696
000380 55 c8 09 3e 46 ef 2c bd 56 dd 1a be 23 61 16 be
       0.13455327 -0.042220376 -0.15123495 -0.14685492
000390 0d 93 8d bd f7 95 0d 3e 17 c2 08 be cb 29 09 be
       -0.06912813 0.13826738 -0.1335529 -0.13394849
0003a0 59 3d e4 3d 44 7b 9e bd 01 dd fa 3d bb 89 73 3b
       0.11144514 -0.07738355 0.122491844 0.0037160951
0003b0 b3 a1 96 3d 08 82 a3 bc 72 bc 37 bd ce e1 6c bd
       0.073550604 -0.019959465 -0.04485745 -0.05783253
0003c0 cb d0 e1 bd 00 f9 af 3d 86 31 f8 3d f6 52 ec 3d
       -0.11026152 0.08592415 0.12118821 0.11539261
0003d0 fc b7 2d 3e e5 16 06 3e 21 cc 03 3e ef 3b 01 be
       0.16964716 0.13094671 0.12870838 -0.12620519
0003e0 dc 1e 61 3d fb ae 13 be 86 ac d2 3d f1 2b cc 3d
       0.05496107 -0.14422219 0.102868125 0.09969319
0003f0 cc f7 47 be b9 1a 33 be 66 28 e9 3c 1e dc 30 be
       -0.19528121 -0.17490663 0.028461646 -0.17271468

linLayer.0.bias f4 [64]
000000 b4 f7 3d 3e 7e f3 85 bd 04 d2 43 3e 0e 8f 22 be
       0.18551522 -0.06540583 0.19123083 -0.15874884
000010 24 c3 46 3c c6 8d 7f bc 79 f6 36 3e 50 c5 d8 bc
       0.012131486 -0.015597766 0.1786746 -0.026461273
000020 db 90 dc bd 9f a3 a5 bc 01 04 16 3d 8d ed 53 be
       -0.107698165 -0.020219622 0.036624912 -0.20696087
000030 29 7f 4d be 40 88 8f 3d a7 d7 48 be 4a 23 f0 bd
       -0.20068039 0.070084095 -0.19613515 -0.11725481
000040 74 a7 a0 3d 8b b6 36 be 87 b5 3b be 72 ed 00 bd
       0.07844439 -0.17843072 -0.18330966 -0.031476445
000050 3c a1 cb bd e2 5e 37 be 65 41 29 3e 68 e5 0a 3e
       -0.099428624 -0.17907289 0.16528852 0.13564074
000060 8c c7 25 be 25 8c 4e be 8a e4 4b 3e 1f 71 a4 bd
       -0.16189402 -0.20170648 0.199114 -0.08029389
000070 d1 a1 ac bd 61 4a 9f bd 9e 23 c7 bd 9b 01 7e 3d
       -0.084293015 -0.077778585 -0.0972359 0.06201325
000080 ec 04 19 be ba cb 03 3e 74 3a aa bd 4c e9 54 3d
       -0.14943284 0.12870684 -0.0831193 0.0519803
000090 93 2d 35 be 2e b3 fc bb 8b 34 0c 3e 9e 8f 2f 3e
       -0.17693166 -0.0077117896 0.13691919 0.1714463
0000a0 60 ec a3 3d 67 a9 3b bd fd ec 22 3e c7 b7 1e 3e
       0.08004069 -0.04581585 0.15910716 0.15499793
0000b0 3e ce 2d be e4 7a 89 bd 25 fe 38 3e 73 02 82 3d
       -0.16973206 -0.06712893 0.18065698 0.063481234
0000c0 69 eb 12 be 79 ea e9 bd 7e e5 b9 bd c4 7e 80 3d
       -0.14347614 -0.11421675 -0.09076975 0.062741786
0000d0 33 5c 34 3e 1f d2 c1 bc ab a5 50 3c eb 25 6c 3d
       0.17613296 -0.023659764 0.012734811 0.05765335
0000e0 fa cc 55 3d 20 34 46 3e e6 74 d9 3d 6f 68 2f be
       0.052197434 0.19355822 0.10618 -0.17129682
0000f0 5e ce bc 3d 12 09 5c 3d 70 3d 6c bd d5 88 0c 3e
       0.09219049 0.053719588 -0.05767578 0.13724072

linLayer.2.weight f4 [64, 64]
000000 66 81 39 3d 68 1b de bd 9f 2e 01 3e 77 fb 83 3c
       0.04528942 -0.10845071 0.12615441 0.016111119
000010 99 8b 19 3e 73 53 2b bd c1 7d 88 bb 11 ba d7 3d
       0.14994659 -0.04182763 -0.0041653817 0.10533536
000020 17 9c 2a bc b4 d4 82 bd 7e b4 c9 bc 35 0b 12 be
       -0.010413191 -0.06388226 -0.024622198 -0.14262088
000030 9e d1 28 be 23 11 15 bd f5 4d 7c bd e3 ec 24 be
       -0.16486213 -0.036393296 -0.061597783 -0.1610599
000040 17 75 f2 3d 41 41 bd 3c 82 2d 9c bd c7 2d 87 bd
       0.11838739 0.023102405 -0.076258674 -0.06600528
000050 80 6f dd 3d 78 fb 24 be 24 94 56 3d c5 f1 0f 3e
       0.108122826 -0.16111553 0.05238737 0.14057072
000060 5e 12 6d 3c 53 e3 6d bd f1 e7 01 3e cd 21 31 bd
       0.014469711 -0.05807812 0.12686135 -0.043245126
000070 2b d6 27 be 72 93 67 3d 8b c8 da 3d 44 40 35 3b
       -0.16390292 0.0565371 0.10682782 0.0027656714
000080 20 11 bc 3d ae 90 6e bd b4 33 d4 bd 58 b9 9b 3d
       0.09182954 -0.058243446 -0.10361424 0.07603711
000090 99 b0 af bd f5 36 d7 3d 19 d1 9f bd cf 6e 1a 3e
       -0.08578605 0.10508529 -0.07803554 0.15081333
0000a0 e5 23 8d 3d 0c 62 68 bd 2c 0b 2a bd ca af b0 3d
       0.06891612 -0.05673413 -0.04151456 0.08627279
0000b0 72 ef 93 bd 48 6e 97 bd 66 4a 92 bd e9 62 02 3e
       -0.07223405 -0.07394081 -0.071430966 0.12733044
0000c0 fb 1c 88 3d 68 3a 0e 3e 5b 52 4a bd 1e 6f c2 3d
       0.066461526 0.13889468 -0.049394947 0.0949385
0000d0 75 b0 58 3d ab e7 08 3e 74 a3 b0 bd 9f 4d 45 bd
       0.052902658 0.13369624 -0.08624926 -0.04816973
0000e0 cd aa 4c bd 3d 64 1a 3e c4 0a b5 bd ee ba 19 be
       -0.049967576 0.150773 -0.08839944 -0.15012714
0000f0 8e 38 b8 bd 81 e0 6d bb 45 1b a7 bd 10 a0 99 3d
       -0.08995162 -0.0036297145 -0.08159498 0.075012326
000100 28 11 a3 3d 73 50 eb 3d 90 9f 33 3d e7 b7 15 be
       0.07962257 0.11489954 0.043853343 -0.14620934
000110 66 03 97 3d 4a f6 0b be c5 e4 9d bd 3c f5 ab 3a
       0.07373695 -0.1366817 -0.0770965 0.001311935
000120 27 5e 3c 3d c8 b3 72 3d 06 46 7c 3c f0 0f 7c 3d
       0.04598823 0.059253484 0.015397554 0.061538637
000130 2e 54 85 bd 03 33 00 be 0a a5 14 be 19 4f 27 be
       -0.065101966 -0.1251946 -0.14516082 -0.16338767
000140 b7 35 3e bd 07 9e b2 bd 2e 66 a0 bb 8e 66 b7 3c
       -0.046437945 -0.087215476 -0.0048949933 0.02238777
000150 0e 45 15 3d ff 9b 7b bb 22 84 b3 3c 46 50 22 3e
       0.03644281 -0.0038392541 0.021913592 0.15850934
000160 b4 cd 0d bd 32 06 7b bd a1 59 bc 3d 53 77 d6 3d
       -0.034620002 -0.061285205 0.09196783 0.10471978
000170 e9 c5 e3 ba f0 a1 4f 3d eb e6 b7 bc 7f ec a0 3d
       -0.0017377707 0.050691545 -0.022448977 0.07857608
000180 fe c3 a2 bb 87 25 92 3d 14 7d 3a bd ef bc 99 3c
       -0.0049672117 0.07136064 -0.04552944 0.018766848
000190 50 9b 1f be fb 74 03 3e 47 0f 19 3e b9 24 1d 3e
       -0.15586591 0.12837593 0.14947234 0.1534604
0001a0 f1 d9 ae 3d d9 6f 84 3d 02 2a c6 bc ed 7d 84 3d
       0.08537663 0.06466646 -0.024189953 0.06469331
0001b0 4a bd a3 3d fb fb 91 bd 30 57 bf 3d 8a 6c 14 3e
       0.079950884 -0.071281396 0.093428016 0.1449453
0001c0 67 38 66 3d f2 b6 dd 3d b4 fc 06 be dd e2 08 3e
       0.056206133 0.1082591 -0.13182336 0.13367791
0001d0 48 ba 6d bd af 34 9a 3d c7 04 03 3e 4d 85 a3 bd
       -0.05803898 0.0752958 0.12794791 -0.079844095
0001e0 a1 f2 61 bd f9 de f6 3d 92 6b be bc 01 f2 ad 3c
       -0.05516303 0.120542474 -0.023244653 0.02123356
0001f0 93 8e c2 3c fb 37 0d be 6a 17 76 bd 94 4a 11 3e
       0.023749625 -0.13790886 -0.060080923 0.14188606
000200 00 ee 8f 3b b5 67 a2 bd c2 5e b9 bd 50 3d 18 3e
       0.0043923855 -0.07929937 -0.09051277 0.14867139
000210 3b 71 05 bc 11 50 f7 3d c8 b8 85 bc cb f4 21 3d
       -0.008144672 0.12075818 -0.016323462 0.039540093
000220 00 f7 b6 bd b2 4f 62 bd 9c 90 4b bd 8f ea 15 3d
       -0.0893383 -0.055251785 -0.049698457 0.036600646
000230 0b b7 cc 3d b7 38 2d bd f7 48 81 3d d9 ce fb 3d
       0.0999585 -0.042290416 0.06312745 0.122953124
000240 11 32 c0 bc c5 68 37 3d ca 8c 4b bd aa de 11 be
       -0.023461374 0.04477765 -0.049694814 -0.14245096
000250 38 0b 6c bb c1 f3 02 3e 15 6c c3 3d db 63 0e be
       -0.003601743 0.12788297 0.095420994 -0.1390528
000260 ae 79 12 3e 90 b7 1f 3e 2e 3c 21 3d d6 89 ab bd
       0.1430423 0.15597367 0.039364032 -0.083758995
000270 a6 36 a6 3d 01 24 a7 3d 92 10 51 3d d6 c8 ac bc
       0.08115892 0.08161164 0.051041193 -0.02109186
000280 75 3c 2d 3d db 23 4b bd 48 3c b4 3d 8c 8c 8b bd
       0.042293984 -0.04959474 0.0880056 -0.068139166
000290 1e 92 12 3e a6 85 01 be d3 3d 15 be 76 23 c2 bd
       0.14313552 -0.12648639 -0.14574365 -0.0947942
0002a0 ad d4 90 3d 3c ee 09 bd 0b ee 11 be 9c 06 96 bd
       0.07071815 -0.033674464 -0.14250962 -0.073254794
0002b0 82 5f 90 bd ae d1 06 3d f9 cd 24 bd d0 6a fe 3b
       -0.07049467 0.03291481 -0.040235493 0.007764198
0002c0 8f 09 22 3e 20 f0 00 be 2d 64 15 3e c1 2f 10 be
       0.15823959 -0.125916 0.14588995 -0.14080717
0002d0 3d ec 08 be e2 ce b8 bd 6e 81 b1 3d cb 67 98 3c
       -0.13371368 -0.09023835 0.08667265 0.01860418
0002e0 48 5e be 3c 2b be a0 bd de 22 43 ba cf 5e 69 3c
       0.023238316 -0.07848772 -0.0007443855 0.014243796
0002f0 42 86 1c bd f7 a7 29 3d c0 66 08 bd 0f c7 a7 3d
       -0.038213976 0.04141995 -0.033301115 0.08192264
000300 2c 00 5f bd a4 bd 83 3d a9 4a 10 bd 89 13 78 3d
       -0.054443523 0.064326555 -0.03522745 0.060565505
000310 c1 8f b6 3d f4 5f 11 3e 1f 93 b1 3d a3 27 1e 3d
       0.08914138 0.1419676 0.08670639 0.03861202
000320 d7 5b b3 bd 7a 9e a4 bd 86 80 9b bd f5 0b 40 3c
       -0.087577514 -0.080380395 -0.07592873 0.011721601
000330 67 e0 da 3d e5 5c 92 bd fd 7f 08 3e d0 69 21 3e
       0.106873326 -0.071466245 0.13330074 0.1576302
000340 dc 36 83 bd 7f 10 e6 3d 77 ac 18 3e 4a 50 a6 bd
       -0.06406948 0.11233615 0.1490954 -0.08120783
000350 c6 d8 64 bd 53 37 ef 3d 3f 25 39 3d 2c ad 09 be
       -0.055870794 0.11680474 0.045201536 -0.13444966
000360 67 37 b2 bd ec 08 86 3c 16 13 96 bd d9 f3 86 3d
       -0.087019734 0.016361676 -0.07327859 0.06589479
000370 f5 0a b0 3d d1 61 0b bd c7 e1 ea 3c 29 23 13 be
       0.0859584 -0.034028832 0.028672112 -0.14368881
000380 88 64 4b 3d 66 a1 d4 38 cb c1 51 3d 9f ae 25 be
       0.04965642 0.000101390106 0.051210206 -0.16179894
000390 66 54 81 bd c6 a4 fd bd b3 39 74 bd 8e 5e 52 bd
       -0.06314926 -0.12384944 -0.05962534 -0.051359706
0003a0 7a 12 3d bd 3b d9 f7 bb 0b f3 23 be 62 ac a5 bd
       -0.0461602 -0.0075637377 -0.16010682 -0.0808952
0003b0 c9 63 b9 bc 2c 08 ba bd b4 4f 9e 3d 17 d1 9b bd
       -0.02263059 -0.0908359 0.07730046 -0.0760824
0003c0 82 c5 fc 3d b3 07 2d be 7b 3b 63 bd 3c da 81 bd
       0.12342359 -0.16897468 -0.055476647 -0.06340453
0003d0 f7 0e c3 bd 2e 92 0f 3d f5 d0 b8 ba 1a 36 43 3d
       -0.09524339 0.035051517 -0.001410036 0.047659017
0003e0 dc f6 9a bd 13 06 0c be 0a cb 78 3c 5c c0 55 3d
       -0.07566616 -0.13674192 0.015185127 0.0521854
0003f0 aa de e9 bb de 7f 46 bc 9a 79 67 3d ac 4e 1e be
       -0.0071371393 -0.012115447 0.056512453 -0.15459698

linLayer.2.bias f4 [64]
000000 68 26 ec 3d 62 29 f3 3d e2 5c a3 bd 91 3d bf bd
       0.11530763 0.118731275 -0.079767 -0.09337915
000010 bd a1 e1 bd 7e d8 bf 3d 54 ca 25 be 49 96 c5 3d
       -0.11017177 0.093674645 -0.16190463 0.09647805
000020 2a ee ab 3d 75 bb 3d 3d be 04 c9 bd 5e ed a5 3d
       0.083950356 0.04632135 -0.098153576 0.08101915
000030 e4 fa e1 3d 41 c4 6f 3c 91 5a 1d 3e 54 4c f2 3d
       0.11034182 0.014634193 0.1536658 0.11830965
000040 d9 01 31 3d c3 71 54 3a 78 95 73 3d 4c 35 94 3d
       0.043214653 0.000810411 0.059468716 0.07236728
000050 be 10 4c 3d 02 3a 0f be d1 26 10 be 8d 2a e8 bd
       0.049820654 -0.13986972 -0.14077307 -0.11336241
000060 cc da 16 be 0b 2e 09 3e f3 33 12 bc fb eb 19 3d
       -0.14731902 0.1339647 -0.0089235185 0.037578564
000070 75 cd 21 3e 7e 77 0d 3d 84 18 34 3d f2 5f 53 bc
       0.15801032 0.034537785 0.043968692 -0.012901293
000080 a4 22 14 3e 44 63 cf 3d df c3 a0 bd a6 da 34 3d
       0.1446634 0.10126355 -0.078498594 0.044153832
000090 71 3e 10 be 92 7d 85 bd 1f 92 cb 3c 36 bb cc 3c
       -0.1408632 -0.06518091 0.02484995 0.024991613
0000a0 d7 66 0a 3e b0 91 53 3d df 49 bc bd bb 15 c8 bd
       0.13515793 0.05165261 -0.09193777 -0.0976977
0000b0 ba 89 69 bd f7 97 11 3e 2e 1c 82 3d 09 dc 8a ba
       -0.057016112 0.14218126 0.06353031 -0.001059414
0000c0 90 0e e4 bd ea ce 80 bc f9 18 b4 3d 15 08 f4 bd
       -0.1113559 -0.015723664 0.08793826 -0.11915604
0000d0 35 52 d5 ba 97 b1 58 bd f0 6e a9 3d c2 37 16 3e
       -0.001627511 -0.052903738 0.08273113 0.14669707
0000e0 c8 41 e4 bd d9 ac fa bd ca 9b e2 3d e6 bc 1e 3e
       -0.11145359 -0.12239999 0.11064871 0.15501747
0000f0 2e 37 8e bc 15 d6 bd bd 51 97 8e 3d 54 fa e3 3d
       -0.017360296 -0.092693485 0.06962455 0.11131731

linLayer.4.weight f4 [32, 64]
000000 4e 03 81 3d d9 96 1a 3e a5 bb 99 bd 61 fe ab 3c
       0.062994584 0.15096606 -0.075064935 0.02099532
000010 8b bd 62 3d 10 41 f4 3d 89 c7 99 3b 93 29 1c bd
       0.055356544 0.11926472 0.004692976 -0.038125586
000020 cb 03 ed 3d 77 b7 67 bd 0d ed 30 bd 20 77 93 bc
       0.11572989 -0.05657145 -0.04319482 -0.01800114
000030 76 2e 40 bd 38 50 02 be 25 4b 33 bc d7 3b 8d 3d
       -0.04691931 -0.12725914 -0.010943209 0.06896179
000040 ca 7f 8b 3d 54 8b 1f 3d b7 a0 52 3c a3 85 b6 bd
       0.06811483 0.038951233 0.0128557 -0.08912208
000050 98 e0 23 be 51 f1 57 3c 30 07 0c be 44 d3 18 bd
       -0.16003644 0.013180093 -0.13674617 -0.037310854
000060 84 81 84 bd 22 e3 91 3c 97 ea 69 bd 93 d6 d3 3d
       -0.06470016 0.0178085 -0.057108488 0.10343661
000070 7f 08 1a 3e 50 cd 22 3e 5e 0b 28 3d 43 58 23 bd
       0.15042304 0.15898633 0.041026466 -0.039879095
000080 97 52 14 3d 35 aa 1c 3e 65 cd 6a 3d 31 25 b4 bd
       0.036211576 0.15299304 0.057324786 -0.08796156
000090 ca a7 9f 3c b0 ec 78 bd 99 46 90 3d 6f da a4 bc
       0.019489188 -0.060772598 0.070447154 -0.020123689
0000a0 d2 3d 37 bd 29 55 99 bc 44 86 a2 3d de c0 19 be
       -0.04473669 -0.018717365 0.079357654 -0.15014979
0000b0 e6 f8 07 be 8a 01 d7 3c 52 18 06 3d 9b fc eb 3c
       -0.13278541 0.026245851 0.032738037 0.028806975
0000c0 7a 49 a9 3c b1 03 d3 bd d0 76 b6 3d fa ad bf bd
       0.02066492 -0.103034385 0.089093804 -0.09359355
0000d0 88 54 8e bd 61 a8 10 be 97 c3 90 3d 26 7c 11 3e
       -0.06949717 -0.14126731 0.07068556 0.14207515
0000e0 de b4 d8 3d fa 43 73 3d 18 e8 e2 3d 49 08 bd 3d
       0.10581373 0.059391 0.110794246 0.09230096
0000f0 dc 73 1b be 8f dd 46 3d bd 28 cb bc 9f ed 16 3c
       -0.15180916 0.04855114 -0.024799699 0.009211927
000100 f6 48 ce 3d 32 47 3d 3d ac 0f 23 be d2 02 a0 3d
       0.1007251 0.046210475 -0.15923947 0.07813038
000110 b1 92 05 be e7 17 d2 bd 35 75 2e bc ef 02 60 bc
       -0.1304424 -0.10258465 -0.0106480615 -0.013672574
000120 15 84 de bd b7 df d2 bd d2 30 13 be e8 d1 8b bd
       -0.108650364 -0.102965765 -0.14374092 -0.06827146
000130 9b de ad bd 0b 00 ea 3d 7a 4f 90 3d f7 03 16 3e
       -0.08489724 0.114257894 0.07046409 0.1464995
000140 cb 30 06 3c e3 db c3 bc 17 c6 b8 3d 77 4c 04 be
       0.008190344 -0.023908561 0.09022158 -0.12919794
000150 ec 87 da bd 9f 5f 2a 3d 1b 57 0b be a0 be 2d bd
       -0.10670456 0.041595098 -0.13607447 -0.042418122
000160 5b 1c f7 bd 0e 47 b9 3c 0e b2 9c bd 3b 86 f5 3d
       -0.12065955 0.02261689 -0.07651149 0.11988493
000170 8b ab 12 3e f0 e3 a7 bd 6b 50 04 3c 12 8b 61 3d
       0.14323251 -0.081977725 0.008075814 0.05506427
000180 65 01 30 bd 40 0e c1 3b d2 8e 33 3d f1 c9 8e 38
       -0.04297008 0.0058915913 0.043837376 6.808702e-05
000190 9e 51 78 3b ca 91 a8 bd ae 97 13 be 3c b0 75 3d
       0.0037890445 -0.08230932 -0.1441333 0.059982523
0001a0 3b 6f 0a 3d 38 d5 46 3d 4c a5 a8 3d 98 d4 b1 3d
       0.033797484 0.048543185 0.08234653 0.08683127
0001b0 51 1f 8a 3d 39 b2 91 bc cb cb 0a bd cc cc ca bd
       0.067442544 -0.017785178 -0.03388576 -0.09902343
0001c0 ad 01 86 3b 20 7b ac 3d 45 2c 8e bd ea 29 a4 3c
       0.0040895552 0.08421922 -0.069420375 0.020039517
0001d0 5b b1 4a 3d b2 b6 ba bd c3 b9 c5 bd 9a 7a 0a 3e
       0.049485546 -0.091168776 -0.09654572 0.13523331
0001e0 4e 58 43 bd 2e 08 f8 bd 75 aa 0d 3e c6 03 55 3d
       -0.047691636 -0.12110935 0.13834555 0.05200555
0001f0 cb 46 19 be 01 1c fd bb 81 bf 93 3d 54 d5 51 bd
       -0.14968412 -0.0077242856 0.07214261 -0.051228836
000200 7a ae 28 bd 34 6d 53 3d 5a a9 8e 3d fc 3d e1 bd
       -0.04118202 0.051617816 0.06965895 -0.10998151
000210 ac ec d7 3c a5 9f 04 3d aa a1 a8 bd eb e6 88 bd
       0.026357971 0.03237881 -0.0823396 -0.06684669
000220 d8 07 8a 3a b1 b3 1b 3d 52 de 1c be 1f 14 1f 3c
       0.0010530902 0.038013164 -0.15319183 0.009709387
000230 17 29 8d bc 1c 0a 18 be b9 1a 8d 3d 77 92 54 bd
       -0.017231507 -0.14847606 0.068898626 -0.051897492
000240 cb 38 2c 3d 14 e9 ac bd 45 b6 f2 3d cd be eb bd
       0.04204635 -0.084428936 0.118511714 -0.11511002
000250 ad 13 80 bd 79 4d 02 3c f0 49 b4 bc 65 13 ac bc
       -0.06253753 0.007953041 -0.022007912 -0.021005342
000260 e8 52 f9 bb 72 86 cc bb 7a 48 42 3d f9 81 a5 3c
       -0.00760876 -0.006241613 0.0474324 0.020203577
000270 cf e0 80 bd 5d 0e 04 bd 33 a8 cc 3d d9 1d 20 3d
       -0.06292879 -0.03224026 0.09993019 0.039090965
000280 57 83 18 bc b4 e0 13 3e 93 89 a1 3b 98 40 94 bc
       -0.009308658 0.14441186 0.00492973 -0.018097207
000290 0b 92 8f 3c 37 7a 27 bd 3a be 82 bd f2 69 a0 bd
       0.017525693 -0.040888038 -0.06383939 -0.078327075
0002a0 83 a6 30 bd 0d 94 00 3e f4 35 0b be 81 cf bd bd
       -0.043127548 0.12556477 -0.135948 -0.09268094
0002b0 6f aa e8 bd 28 f4 e9 3d 7c fd 22 bd b5 b4 4d bd
       -0.11360633 0.11423522 -0.039792523 -0.050221164
0002c0 ba 5e 9b bc e5 94 0f bd 90 eb 51 3d 1b 10 a5 bd
       -0.018966068 -0.035054106 0.05125004 -0.080597125
0002d0 d9 a1 a1 3d 50 99 13 3d 7b b8 30 bc 5e 54 09 3e
       0.07892198 0.036034882 -0.010786171 0.1341109
0002e0 bc 2a a1 bd 3e 15 af 3d ae 1b 15 3e 71 f0 a2 3d
       -0.07869479 0.085489735 0.1456134 0.07956017
0002f0 29 05 0a be 40 b4 79 bc 55 a7 1c 3e 48 42 1e bc
       -0.13478531 -0.015240729 0.15298207 -0.009659357
000300 ab d2 a3 3c f5 9b d1 3c a6 cf b0 3d 99 d4 57 3d
       0.019997915 0.025587061 0.08633356 0.052692983
000310 99 23 be bc 84 a9 ea bd 12 45 0b 3e 1f 4a 35 3c
       -0.023210334 -0.11458114 0.13600567 0.011065035
000320 80 ec 39 bd 01 9b 01 3e 7e f3 9d 3d d4 3b 3a bd
       -0.04539156 0.12656786 0.07712458 -0.045467213
000330 26 00 0e bd fe 68 8e 3d 6c a9 8a bd ea 67 43 bd
       -0.03466811 0.069536194 -0.06770596 -0.047706522
000340 29 4d a9 3d bf 89 03 3e 46 3a 02 bd 60 f6 a9 3d
       0.0826667 0.12845515 -0.031793855 0.082989454
000350 d2 4d 82 3d 0e 24 cb 3d 27 00 9d bd 11 f9 b4 bd
       0.06362499 0.09918986 -0.07666045 -0.08836568
000360 6d f6 34 3d 73 d9 16 be 4c c6 92 bc 02 7a ac 3d
       0.044180322 -0.14731388 -0.017916821 0.08421709
000370 5f c7 26 be eb 9e 1a be 21 e1 14 3e f2 85 64 3d
       -0.16286992 -0.15099685 0.14539005 0.055791803
000380 c1 88 f7 bd 37 cb 2a bd a0 f2 aa bd 80 58 3e bd
       -0.120866306 -0.041697707 -0.08347058 -0.04647112
000390 b8 8e fe 3d da 32 b3 3d b3 37 df 3d 3b e2 54 bc
       0.12429565 0.087499335 0.10899296 -0.012993391
0003a0 45 94 51 3c 60 96 7d 3d 83 4f b7 bc c8 69 18 3e
       0.012791698 0.061910987 -0.022376781 0.14884102
0003b0 32 80 af 3d e8 6d 92 bc 5d e4 11 3c e2 1d 57 bd
       0.08569373 -0.017874673 0.008904544 -0.052518733
0003c0 16 27 2a bd 9a ca bf 3d 91 dd a9 3c 73 1f ba bd
       -0.04154118 0.09364815 0.020735534 -0.0908803
0003d0 61 5a 61 3d 3e c9 5f bd 33 6f ff 3d 12 a0 bb bd
       0.055017833 -0.05463528 0.124723814 -0.0916139
0003e0 b2 5e 90 bd 03 da c0 bb 7f 63 cb bd 2e d8 cb bd
       -0.07049312 -0.005885364 -0.09931087 -0.099533424
0003f0 29 bc 1b 3e 70 ec 09 3e 53 cd d7 bc d9 51 57 bd
       0.15208496 0.134691 -0.026343023 -0.05256829

linLayer.4.bias f4 [32]
000000 4e bb f8 3d dd b4 25 3d 29 1d 02 3e fc df 8b bd
       0.121451005 0.040455688 0.12706436 -0.06829831
000010 01 c6 fa 3d 4d f0 cf 3b c6 c0 b0 bd 88 a0 ac 3d
       0.122447975 0.0063457848 -0.086305186 0.084290564
000020 a8 33 a6 bc 27 ec 6d bd 5c f9 d7 bd ca ef 95 3d
       -0.020288303 -0.05808654 -0.105456084 0.07321127
000030 0c 6d ec bd 92 77 29 3d 0a b7 af bc 6b af 8c bd
       -0.115442365 0.041373797 -0.021449585 -0.06869396
000040 d1 87 0d bd ea 07 a2 3d 96 d8 34 bd 86 bf 87 bc
       -0.034553353 0.07911666 -0.044151865 -0.016570818
000050 bb 4f c4 3c 05 54 a1 3b 7d 1a 65 bc ba 0c 0b bc
       0.0239638 0.004923346 -0.013983366 -0.008486921
000060 fe 2f 5d bd 29 e3 20 be 15 6b 33 bd 50 82 d7 bd
       -0.054000847 -0.15711655 -0.043803293 -0.10522902
000070 ac 8c 1a be 84 14 b8 bd 50 be c4 bd e8 3a e9 3d
       -0.15092725 -0.08988288 -0.09606612 0.113881886

outLayer.0.weight f4 [1, 32]
000000 ef 2d 10 3e 26 58 f9 3d 41 8d 07 3d 31 21 05 be
       0.14080022 0.12175016 0.033093695 -0.13000943
000010 b8 44 71 3d 8a 57 f8 bd 9c 72 b8 bd dc 4e 03 3e
       0.058903426 -0.12126072 -0.09006235 0.12823051
000020 2b 50 ca 3d 7e c5 f3 bc 7b b9 4f be ed 94 ff bd
       0.09878572 -0.029757258 -0.20285599 -0.12479577
000030 b1 7f 18 bd 7f 15 87 3d 21 8c a1 3c b9 b5 27 3d
       -0.03723115 0.06595897 0.019720139 0.04094479
000040 d9 a2 b9 3d dc af 0d be 2b a3 2d 3e 68 9e 84 3d
       0.09064264 -0.13836616 0.16956775 0.06475526
000050 1b e2 36 bd c7 d9 1f 3e 31 30 36 be d9 48 41 3e
       -0.044649225 0.15610419 -0.17791821 0.18875445
000060 48 b1 1e be fa a9 86 bd 74 88 f6 3d 23 f8 03 be
       -0.15497315 -0.06575389 0.12037745 -0.12887625
000070 1c 43 ed bc 3e 97 ef bc 90 e1 47 be ec 46 3d 3e
       -0.028962664 -0.029246923 -0.19519639 0.18484086
