model-ppo/from-paper/InvertedDoublePendulum-v4_critic.pt (torch, 4120 bytes, 3 tensors)

inLayer.0.weight f4 [32, 11]
-0.35827637 0.111372806 -0.21488257 -0.38855582 -0.70072365 -0.012517756 0.014070162 -0.06939132
0.15677036 -0.025907753 0.23829377 -0.02953432 -0.15615049 -0.0711317 -0.6504612 -0.6831475
-0.071533985 -0.015053796 -0.1281108 0.29687017 -0.27291602 -0.27677363 0.059009124 -0.23427993
0.26576373 0.69635403 0.37392297 0.008984571 -0.18051846 -0.052068673 -0.063666075 -0.009125018
0.27927005 -0.17472613 -0.36022517 0.03247858 0.7253687 0.66474736 0.13084242 -0.07881724
0.017099775 -0.25825468 0.25473234 0.24597298 -0.31652254 0.046870515 -0.05320145 -0.50712055
-0.3201284 -0.31889123 -0.09603226 -0.1146726 -0.008538644 0.22249623 -0.03512741 -0.22340089
0.07222665 -0.002431549 0.45870414 0.5393489 0.17737262 -0.13267653 0.03608376 -0.17051926
-0.15558939 0.22971167 -0.2369366 0.111337624 0.2777507 -0.7307509 -0.70552814 -0.02777391
0.13466157 -0.049844217 -0.20568916 0.033944633 0.09739433 -0.17273554 -0.046864606 -0.2282621
-0.7628331 -0.3087711 -0.2252017 -0.18769173 -0.17461823 -0.080686145 -0.14365806 -0.054972015
-0.2291594 -0.041717283 -0.006653532 -0.74499345 -0.21457554 0.10829684 0.2888482 0.039999794
-0.274438 -0.08140885 -0.19048072 0.07313312 0.30153033 0.027845798 -0.8110185 -0.768121
-0.09445919 0.116476394 -0.008717823 -0.2290331 0.28622094 -0.02064689 -0.0026006508 -0.022717295
-0.22099012 0.6161439 0.5123265 0.009039692 -0.17969647 0.041002538 -0.27095276 0.2886451
-0.09736497 0.20117709 -0.21216916 0.05909854 -0.36920795 -0.7273929 0.023985062 0.19799308
-0.041289464 -0.00560764 -0.23193018 -0.23866412 0.23917347 0.092328876 0.20084919 0.804145
0.38212997 0.092859715 0.082514495 0.13994287 0.29361647 0.15215237 -0.047884498 0.08316396
-0.20505114 -0.22914293 -0.22476068 -0.54474 0.03203365 0.26191851 0.037155073 0.06305577
0.09417309 0.08746046 0.13802083 -0.08838338 -0.014630152 0.49727154 0.13830218 0.32046738
0.0797854 0.14303036 0.006803282 0.096472144 -0.2758834 0.035125423 0.18733019 0.036756963
0.43613192 -0.055808406 0.35997564 -0.033818226 0.09447281 0.06531435 0.15607455 -0.025411129
-0.34614247 0.38195023 -0.055694137 -0.2358312 -0.3977755 -0.42327157 0.021243157 -0.022000244
0.017141446 0.09109134 0.007200452 -0.19162743 0.25849402 -0.13859938 -0.60607344 -0.5993142
-0.18972471 0.0652073 -0.0019745745 0.17593303 0.07555629 0.2612481 -0.011229632 0.042694625
0.24263385 0.3623745 0.6929887 0.0704033 -0.11753622 0.015558777 0.10396776 0.27978745
0.27026197 -0.17524694 -0.153385 -0.28812802 -0.716378 -0.68736297 -0.31293043 -0.037717994
-0.062279698 0.19256437 0.092634626 -0.21833824 -0.032009963 -0.22976746 0.16305716 0.27934903
0.80786926 -0.043740958 -0.21935342 -0.042665705 -0.043997552 0.15839899 -0.29688358 0.11590648
0.10063333 -0.24288112 -0.37090608 -0.5757265 -0.14302585 0.12229253 0.013979795 -0.2878944
0.25836867 0.08293355 0.11743292 0.11932316 0.21815625 -0.24770603 -0.07873035 0.114983484
-0.3504837 0.31567264 -0.2515338 0.12786594 -0.20824586 -0.16334912 0.179953 -0.067342915
00000000: 0070 b7be 6d17 e43d 2d0a 5cbe caf0 c6be
00000010: a062 33bf 4617 4dbc 8986 663c 091d 8ebd
00000020: 6988 203e 7f3c d4bc 4803 743e f5f1 f1bc
00000030: eae5 1fbe 7fad 91bd a084 26bf c1e2 2ebf
00000040: 6980 92bd 32a4 76bc 7a2f 03be 5eff 973e
00000050: a6bb 8bbe 46b5 8dbe 8db3 713d 14e7 6fbe
00000060: 2f12 883e 4244 323f d572 bf3e 0634 133c
00000070: d5d9 38be f645 55bd 5c63 82bd 1981 15bc
00000080: 7cfc 8e3e 68eb 32be 6f6f b8be 4208 053d
00000090: c3b1 393f e22c 2a3f 8efb 053e ef6a a1bd
000000a0: d414 8c3c f539 84be 476c 823e 57e0 7b3e
000000b0: 3e0f a2be 4cfb 3f3d c3e9 59bd a7d2 01bf
000000c0: dfe7 a3be b645 a3be 90ac c4bd 78d9 eabd
000000d0: abe5 0bbc 0dd6 633e c2e1 0fbd 34c3 64be
000000e0: 91eb 933d 9f5a 1fbb 45db ea3e c512 0a3f
000000f0: 2ba1 353e 5bdc 07be 91cc 133d 9a9c 2ebe
00000100: d352 1fbe 8939 6b3e 829f 72be fb04 e43d
00000110: 5735 8e3e 7e12 3bbf 7e9d 34bf 1c86 e3bc
00000120: b9e4 093e 7329 4cbd 2ea0 52be 8709 0b3d
00000130: ae76 c73d 96e1 30be 1af5 3fbd 8abd 69be
00000140: 0849 43bf 3f17 9ebe 469b 66be 4332 40be
00000150: 1fcf 32be c73e a5bd 191b 13be 562a 61bd
00000160: c3a8 6abe bedf 2abd df05 dabb e4b7 3ebf
00000170: b1b9 5bbe bcca dd3d e9e3 933e d3d6 233d
00000180: 2383 8cbe afb9 a6bd 610d 43be d1c6 953d
00000190: 2f62 9a3e df1c e43c e99e 4fbf 94a3 44bf
000001a0: d273 c1bd 2d8b ee3d 33d5 0ebc a787 6abe
000001b0: 8d8b 923e ab23 a9bc ae6f 2abb 9f19 babc
000001c0: 3c4b 62be 9bbb 1d3f d427 033f 371b 143c
000001d0: 5a02 38be 47f2 273d 52ba 8abe 4ac9 933e
000001e0: 4967 c7bd 5e01 4e3e df42 59be 5011 723d
000001f0: d308 bdbe 6c36 3abf 527c c43c b3be 4a3e
00000200: 241f 29bd 4bc0 b7bb 1b7f 6dbe 5e64 74be
00000210: e4e9 743e ec16 bd3d 69ab 4d3e 72dc 4d3f
00000220: 8aa6 c33e 3c2d be3d 5cfd a83d 2f4d 0f3e
00000230: e654 963e d5cd 1b3e 8922 44bd de51 aa3d
00000240: edf8 51be 72a4 6abe aa27 66be 1574 0bbf
00000250: b735 033d 2f1a 863e eb2f 183d 6223 813d
00000260: d2dd c03d 781e b33d 5555 0d3e 5802 b5bd
00000270: 4eb3 6fbc 609a fe3e 169f 0d3e 4d14 a43e
00000280: 8766 a33d 8d76 123e 11ee de3b 3093 c53d
00000290: 9740 8dbe addf 0f3d 7cd3 3f3e 788e 163d
000002a0: af4c df3e 5b97 64bd ba4e b83e fb84 0abd
000002b0: f67a c13d 88c3 853d 02d2 1f3e 002b d0bc
000002c0: 9639 b1be fb8e c33e 891f 64bd bc7d 71be
000002d0: 3ba9 cbbe 0db7 d8be 2106 ae3c db39 b4bc
000002e0: 386c 8c3c 198e ba3d c5f1 eb3b fb39 44be
000002f0: 5459 843e ffec 0dbe a127 1bbf a86c 19bf
00000300: 3247 42be 688b 853d dd67 01bb ca27 343e
00000310: 42bd 9a3d 50c2 853e 7efc 37bc 8fe0 2e3d
00000320: 0275 783e 2789 b93e b567 313f 9b2f 903d
00000330: d4b6 f0bd 3eea 7e3c 0ded d43d 4d40 8f3e
00000340: c75f 8a3e ef73 33be f510 1dbe 8485 93be
00000350: 8c64 37bf 05f7 2fbf 6b38 a0be 2f7e 1abd
00000360: ff18 7fbd 982f 453e 39b7 bd3d 0f94 5fbe
00000370: e11c 03bd 2948 6bbe 75f8 263e d606 8f3e
00000380: 85d0 4e3f b829 33bd 2f9e 60be 3cc2 2ebd
00000390: c736 34bd 5833 223e 2001 98be 6060 ed3d
000003a0: d918 ce3d d4b5 78be 67e7 bdbe d062 13bf
000003b0: 5e75 12be 8274 fa3d 830b 653c e566 93be
000003c0: e648 843e 11d9 a93d ac80 f03d b35f f43d
000003d0: 5a64 5f3e a6a6 7dbe 613d a1bd 767c eb3d
000003e0: 9972 b3be d89f a13e 0ac9 80be 4aef 023e
000003f0: 673e 55be fe44 27be 9945 383e 15eb 89bd

inLayer.0.bias f4 [32]
-0.4626157 -0.43769425 0.82748264 0.68677026 -0.7758046 0.60304713 -0.60600483 -0.53249115
-0.6789987 -0.54354143 0.5829083 -0.7279878 0.3620151 -0.70836055 0.45892042 0.5167099
-0.40888053 -0.6221977 0.6481554 -0.42163813 0.47367203 -0.7137412 -0.0016892143 0.76574284
-0.7151792 -0.0858443 0.5733763 -0.45520902 0.304613 0.73243576 0.47490418 0.7017997
00000000: f7db ecbe 7619 e0be e7d5 533f 2dd0 2f3f
00000010: 219b 46bf 4c61 1a3f 2223 1bbf 5751 08bf
00000020: dcd2 2dbf 8825 0bbf 7a39 153f 695d 3abf
00000030: 0b5a b93e 1e57 35bf 9ef7 ea3e 1a47 043f
00000040: ca58 d1be 5948 1fbf 83ed 253f f4e0 d7be
00000050: 2485 f23e beb7 36bf a068 ddba b907 443f
00000060: fc15 37bf 23cf afbd cac8 123f 2811 e9be
00000070: 3cf6 9b3e e980 3b3f a426 f33e 25a9 333f

outLayer.0.weight f4 [1, 32]
-0.6250843 -0.6645681 0.60388803 0.5739091 -0.5759258 0.47101548 -0.704152 -0.771884
-0.7030427 -0.5693828 0.7057775 -0.64987856 0.7545847 -0.7572075 0.31495163 0.30743852
-0.28923893 -0.5715211 0.55677557 -0.7240784 0.711512 -0.6830139 0.124359086 0.6686316
-0.6579226 -0.33773354 0.66939044 -0.5346188 0.660137 0.5869344 0.6811888 0.6558574
00000000: 8605 20bf 2321 2abf 6898 1a3f b5eb 123f
00000010: e06f 13bf f128 f13e 4e43 34bf 319a 45bf
00000020: 9bfa 33bf 12c3 11bf d6ad 343f 715e 26bf
00000030: 772c 413f 5ad8 41bf 5741 a13e 9568 9d3e
00000040: 2017 94be 354f 12bf d888 0e3f 345d 39bf
00000050: a725 363f 00da 2ebf faaf fe3d 712b 2b3f
00000060: 9e6d 28bf 69eb acbe 2c5d 2b3f c7dc 08bf
00000070: bdfe 283f 5541 163f 6462 2e3f 45e6 273f
