model-ppo/from-paper/InvertedPendulum-v4_critic.pt (torch, 3176 bytes, 3 tensors)

inLayer.0.weight f4 [32, 4]
00000000: a35a a93e 5bdc 00bd ec28 9a3d 0a5a 273d
00000010: f325 b8be 68ac 1e3e 93d9 193e 5f8a 183d
00000020: a9b4 b2bd 6297 fc3d 8a8e 05be a287 4dbe
00000030: c635 cfbd 54ec fdbe 1350 013f 68ec a03e
00000040: 04ab 23bd b498 12be 57d5 b7bd 2953 913e
00000050: 60c1 703c a5fb bc3e a193 f33d ce9e 8e3c
00000060: d678 803d 8577 2b3e 8c35 9f3e db55 9bbb
00000070: 88b6 db3e 440f 8abd a1b2 983e cab6 183e
00000080: 3498 073f b1c1 c23e f775 f2bd 0edb a2bd
00000090: 4242 00bf f891 0e3e bd23 7f3e 83a7 8abe
000000a0: 5690 23bf a56b db3d a7d8 8b3e 5880 6abd
000000b0: 7657 09bf a27d c8bd 3bd0 02be deb2 d0bd
000000c0: 73bc d13d adcd a3bc 59cf a83e 2683 8f3e
000000d0: 1cf8 2ebe ee31 46be b03f 083d a409 35bd
000000e0: 30ae 13be 274f c8bc 5ff3 a83e e994 e33d
000000f0: 183d 84be 21a6 09bf 31ae 64be c085 07bd
00000100: 8a17 8c3e a165 ce3d 3d5c 7fbe 1c14 b13d
00000110: 5adf 44bc 1dbe c93c dbdf ee3e d751 523e
00000120: 1526 5fbe 263a d8bc f90f 3cbd bf02 68be
00000130: 0a87 873c 7f96 85be 1235 a3bd 61c3 63bd
00000140: 85ff 6e3d 583c 9fbe 33df a53e 6c03 b8bd
00000150: d183 2e3e 6ac6 d93e 4d6e d6bc 2ed3 11be
00000160: 0761 1dba 00b4 5e3e 47dc d43e 0714 323e
00000170: 1dad eabc 72f9 f2be 7771 0abe c99b de3e
00000180: e954 233e d878 ecbe 20a0 a83e 7c43 a93e
00000190: af0e 07be 4632 9ebe 4f07 a9bd 5d52 bf3d
000001a0: b1f9 6abe c832 463e 2ed0 10bf 43ca 99be
000001b0: 5701 92bc 9f91 f73e 165b 4f3c d990 5dbd
000001c0: 629f 943e 2627 ea3e a3a3 90bd 6007 95bd
000001d0: ea6e e6be 73b1 a23c d24c abbe d1f3 16be
000001e0: b6d7 45be f3bd 1abe ee19 563e f6a8 063e
000001f0: 333a c43e 71da 913e 484b 893d 9dc9 8abe
0.33076963 -0.031460147 0.075273365 0.040857352 -0.35966453 0.15495455 0.15024404 0.037241336
-0.087258644 0.123335615 -0.13042656 -0.20071271 -0.10117678 -0.49594367 0.5051281 0.31430364
-0.039958015 -0.14316064 -0.08976238 0.2838376 0.014694542 0.3691074 0.11893392 0.017409708
0.062730476 0.16744812 0.3109554 -0.0047404594 0.42912698 -0.06741193 0.29823783 0.14913478
0.5296662 0.380384 -0.11838906 -0.079519376 -0.501011 0.1392287 0.24915977 -0.27080926
-0.63892114 0.10713891 0.2731373 -0.057251304 -0.5364908 -0.097895876 -0.12774746 -0.10190366
0.10241022 -0.019995535 0.32970694 0.28029746 -0.17086834 -0.19354984 0.033263862 -0.044198647
-0.14421916 -0.024451805 0.32998177 0.11112387 -0.2582786 -0.5376912 -0.22332074 -0.03308654
0.2736171 0.10077978 -0.2493753 0.08646414 -0.012016142 0.024626786 0.46655163 0.20539032
-0.21791871 -0.026394915 -0.04591367 -0.22657298 0.016543884 -0.26091382 -0.07969107 -0.05560625
0.05834915 -0.31100726 0.3239685 -0.08985028 0.17042471 0.4253419 -0.026175642 -0.14240715
-0.0006003533 0.21748352 0.41574308 0.17390452 -0.028647 -0.47455937 -0.13519846 0.4347823
0.1595036 -0.46185946 0.32934666 0.330593 -0.13189195 -0.3089773 -0.08253347 0.093418814
-0.22946812 0.19355309 -0.56567657 -0.30037126 -0.017822905 0.48353288 0.012655994 -0.054093216
0.2902785 0.45732993 -0.07062461 -0.07276797 -0.45006496 0.019860005 -0.33457047 -0.14741446
-0.19320568 -0.15111522 0.20908329 0.13150391 0.38325652 0.2848697 0.06703812 -0.27106944

inLayer.0.bias f4 [32]
00000000: 9c44 193f f2e2 383f f2f0 34be cc08 a13e
00000010: 4745 603d b92b 3b3f c681 f4bd 51e3 113f
00000020: bc22 16be daca 523e c897 1bbe 457d 363f
00000030: 7779 883e 78dc eabe 305a f1be db8f 97be
00000040: 7a55 ccbc 4404 343f 4432 823e 3d92 c3be
00000050: c2b8 f9bd 7e4e 673e 27ce b3be 844a 3f3d
00000060: 737b 383e fee4 253f c476 13bf ce14 073f
00000070: 4290 ebbe c9df 403f 2694 473f 6f70 6bbd
0.59870315 0.7222129 -0.17670038 0.31452024 0.054753568 0.7311359 -0.11938815 0.5698748
-0.14661688 0.20585194 -0.15194619 0.71284896 0.2665517 -0.4587133 -0.4713912 -0.2960194
-0.024943102 0.7031901 0.25428975 -0.38197508 -0.12193443 0.22588536 -0.3511822 0.046701923
0.18015842 0.6480254 -0.57603097 0.5276612 -0.46008497 0.7534147 0.7796043 -0.057480272

outLayer.0.weight f4 [1, 32]
00000000: 234e 313e 37bd a03e d034 a5bd 6a49 423e
00000010: b064 39bd f1cf a83e 4b0e 5cbc 6d43 083e
00000020: 5a72 67be 2cad cd3d a113 22bd 5242 7e3e
00000030: a7da 5e3e 3d71 adbe 2e5d c9be ba96 d4be
00000040: 2f0c 21bc 23fc ae3e 6e5d a53d 4c8d 84be
00000050: ac40 31be 28c8 dd3d 88bc 8bbe c5d2 a1bd
00000060: 1d21 6b3e b7b9 ab3e 3b67 abbe 8bac ca3e
00000070: f2c2 28be 4b28 a93e 4f94 573e a43a 7c3d
0.17314963 0.3139436 -0.08066714 0.18973318 -0.04526204 0.32971147 -0.013431142 0.13306971
-0.22602215 0.100427955 -0.0395695 0.24829987 0.21763097 -0.33875456 -0.39328903 -0.41521245
-0.009829565 0.3417674 0.08074461 -0.2588905 -0.17309827 0.108291924 -0.27292275 -0.07901529
0.2296185 0.33540127 -0.33477196 0.39584765 -0.16480616 0.33038554 0.21052669 0.06157936
