model-ppo/from-paper/InvertedDoublePendulum-v4_pol.pt (torch, 4836 bytes, 4 tensors)

inLayer.0.weight f4 [32, 11]
-0.44956464 0.44178846 -0.17367652 0.054316327 0.12519237 -0.25332808 -0.04541277 -0.26780385
0.22483683 -0.26805055 0.2556841 0.41416562 -0.3137647 0.06723415 0.25795168 -0.01308474
0.001215381 0.02909682 -0.05326728 0.05646663 -0.16050506 -0.2098593 0.114318065 -0.015658123
-0.026616594 0.20932469 0.06853637 -0.15661076 -0.099674724 0.2666588 -0.024353327 0.02779616
-0.13266598 0.0027549195 -0.24202575 0.13107772 0.10135106 0.15495408 0.12547576 0.1322578
-0.27867943 -0.07480825 0.13750042 0.2518333 0.2084877 -0.44757402 0.19997892 0.5769707
0.14113753 0.052670065 -0.005380001 -0.061706774 0.28435877 -0.017861348 -0.0788105 0.19818734
0.008904576 0.257366 0.30511358 -0.054959632 0.22730535 0.23675434 0.051302116 -0.065289296
-0.24670884 -0.022836104 0.04601654 0.107645385 -0.22399187 0.122983724 -0.21574569 0.27258787
0.1514556 -0.23933595 0.16966791 -0.28567487 -0.2343836 -0.17118807 -0.16361554 -0.21321814
-0.2683575 -0.2619093 -0.08985026 -0.14020577 -0.10168153 -0.283787 0.26609102 0.13068959
0.060300842 -0.17469667 0.1534318 0.028984671 -0.006944347 0.14091955 -0.055421624 0.24384747
-0.24892767 0.14206998 0.110879265 0.136076 0.26187882 -0.08002526 0.16495255 -0.13646282
-0.07379312 0.104251795 0.13184191 0.25610092 0.29677808 0.22386447 -0.03790751 -0.08470305
0.14760217 -0.25190786 0.16418904 -0.22335994 -0.11068055 -0.06507525 -0.060423877 0.19027294
0.034291267 0.009331555 0.34478462 -0.16054124 -0.63510054 -0.46407172 -0.26346615 -0.12766261
-0.04605978 0.09684434 0.04553469 -0.0024216925 0.04962394 0.01832 -0.2608113 0.095244974
-0.05473316 0.007611021 -0.24124686 -0.059777368 0.110352814 -0.040350385 0.037124254 -0.002389075
0.18512765 -0.2070492 0.18621674 0.2234952 0.021061778 0.14134075 -0.20697798 0.06791561
-0.11550523 0.039432872 -0.26212844 -0.16798003 0.07921102 -0.20166355 0.20426852 -0.108927764
0.20096102 0.101140566 0.06898617 -0.017989377 -0.08536293 -0.20427091 0.091793776 -0.383464
-0.015275888 -0.14654458 -0.062085666 -0.24285072 -0.09241936 0.14995083 -0.15402648 0.07371774
0.19644758 0.015684748 -0.10720367 -0.2995379 0.24317786 0.22196792 0.05324086 -0.22840047
0.20916243 0.10902598 -0.29328567 -0.04943683 -0.16230628 -0.34882393 0.12507592 0.19173487
0.02535478 0.20490444 0.127064 -0.06827199 -0.048567917 -0.20277347 -0.15679435 0.044893038
0.059441123 0.60464317 0.39049366 0.34887904 0.1395253 0.1026166 0.0876254 0.102430806
0.18009548 -0.19283329 0.12325906 0.21860024 0.17408678 -0.10507078 0.09725919 -0.058752235
-0.047342554 -0.057418007 0.2776084 -0.18162 0.29991877 0.104212455 -0.09209878 -0.13257919
-0.39829588 0.13932829 0.14617531 0.04916219 -0.22409235 -0.15067735 -0.24498987 0.037278097
0.3002994 0.10930657 0.001087374 -0.28998974 0.17502339 0.026495561 0.21893544 0.102527924
0.09307075 -0.22608168 0.3334056 -0.033344053 0.61412406 -0.16112179 0.1054784 0.13873157
0.087320425 0.2976848 0.15013468 -0.16243646 -0.095024005 0.12373605 0.28490895 0.12432609
00000000: 562d e6be 1932 e23e 42d8 31be cc7a 5e3d
00000010: 6e32 003e 38b4 81be be02 3abd 961d 89be
00000020: a03b 663e ec3d 89be 07e9 823e 840d d43e
00000030: c4a5 a0be 0fb2 893d 3e12 843e 6161 56bc
00000040: 6b4d 9f3a 745c ee3c cb2e 5abd 8e49 673d
00000050: 705b 24be 5be5 56be 971f ea3d 7745 80bc
00000060: 0b0b dabc 3659 563e cc5c 8c3d 925e 20be
00000070: 4322 ccbd 8187 883e a180 c7bc c6b4 e33c
00000080: 97d9 07be e18b 343b 99d5 77be 3d39 063e
00000090: 2591 cf3d 48ac 1e3e b87c 003e 976e 073e
000000a0: 12af 8ebe 1135 99bd e9cc 0c3e 4bf0 803e
000000b0: cd7d 553e 6c28 e5be 46c7 4c3e 5ab4 133f
000000c0: 5b86 103e 91bc 573d b84a b0bb 3ec0 7cbd
000000d0: 7997 913e f651 92bc 6667 a1bd 9ff1 4a3e
000000e0: 80e4 113c 7ac5 833e d937 9c3e 5a1d 61bd
000000f0: bcc2 683e bb6f 723e 2b22 523d 65b6 85bd
00000100: 3ea1 7cbe c812 bbbc d77b 3c3d 2f75 dc3d
00000110: 205e 65be e4de fb3d 70ec 5cbe a390 8b3e
00000120: 2d17 1b3e 7c14 75be 6dbd 2d3e fa43 92be
00000130: 4102 70be ed4b 2fbe d58a 27be db55 5abe
00000140: 2766 89be fa18 86be 6a03 b8bd 1a92 0fbe
00000150: 683e d0bd 884c 91be 153d 883e 7ed3 053e
00000160: 04fe 763d afe3 32be 3a1d 1d3e 4371 ed3c
00000170: 688d e3bb 374d 103e c901 63bd 27b3 793e
00000180: e5e6 7ebe cb7a 113e ab14 e33d 8257 0b3e
00000190: fb14 863e 49e4 a3bd 52e9 283e e9bc 0bbe
000001a0: d920 97bd f781 d53d 9101 073e a91f 833e
000001b0: 4cf3 973e ba3c 653e e844 1bbd cb78 adbd
000001c0: 0625 173e 11fa 80be 2c21 283e 78b8 64be
000001d0: 7cac e2bd 2c46 85bd 077f 77bd e9d6 423e
000001e0: 0075 0c3d 61e3 183c 9c87 b03e ec64 24be
000001f0: f395 22bf cf9a edbe 09e5 86be fdb9 02be
00000200: 2ea9 3cbd 5356 c63d 9582 3a3d 42b5 1ebb
00000210: 7942 4b3d d313 963c 0f89 85be cc0f c33d
00000220: e12f 60bd df65 f93b 6b09 77be 1dd9 74bd
00000230: a800 e23d 7246 25bd 9a0f 183d 0792 1cbb
00000240: 1a92 3d3e b504 54be 9aaf 3e3e eddb 643e
00000250: c089 ac3c a1bb 103e 09f2 53be 5717 8b3d
00000260: 028e ecbd 5d84 213d b335 86be f502 2cbe
00000270: 6339 a23d e480 4ebe c42b 513e 8515 dfbd
00000280: bac8 4d3e c922 cf3d 9f48 8d3d 755e 93bc
00000290: c3d2 aebd 652c 51be 60fe bb3d 6555 c4be
000002a0: b847 7abc c80f 16be 8a4d 7ebd dcad 78be
000002b0: 5d46 bdbd b68c 193e 1eb9 1dbe 54f9 963d
000002c0: 8e29 493e 4d7d 803c 998d dbbd 085d 99be
000002d0: 9e03 793e 8f4b 633e 1713 5a3d d0e1 69be
000002e0: ad2e 563e 0349 df3d 8a29 96be 467e 4abd
000002f0: 9e33 26be 0d99 b2be e713 003e 2556 443e
00000300: d4b4 cf3c 78d2 513e 111d 023e 2fd2 8bbd
00000310: 27ef 46bd d9a3 4fbe b38e 20be c3e1 373d
00000320: 8978 733d e5c9 1a3f c9ee c73e 46a0 b23e
00000330: b8df 0e3e a728 d23d f274 b33d 3ec7 d13d
00000340: f36a 383e 1776 45be 3f6f fc3d bed8 5f3e
00000350: ce43 323e 592f d7bd d42f c73d 2fa6 70bd
00000360: 44ea 41bd 252f 6bbd b022 8e3e 98fa 39be
00000370: f48e 993e 576d d53d 499e bcbd d7c2 07be
00000380: 70ed cbbe 13ac 0e3e fbae 153e 4b5e 493d
00000390: 7778 65be 2a4b 1abe a0de 7abe ebb0 183d
000003a0: d8c0 993e 1fdc df3d 3886 8e3a 8979 94be
000003b0: 5539 333e 380d d93c 9d30 603e 29fa d13d
000003c0: e19b be3d f581 67be 24b4 aa3e c693 08bd
000003d0: 3c37 1d3f 1cfd 24be 0f05 d83d a60f 0e3e
000003e0: 0dd5 b23d 246a 983e e8bc 193e be55 26be
000003f0: f29b c2bd 5469 fd3d 96df 913e ad9e fe3d

inLayer.0.bias f4 [32]
-0.19967815 0.030770823 -0.02209953 0.20323735 0.706216 -0.10616603 0.20139067 -0.41037306
-0.081443936 0.32231864 -0.22196254 -0.3635617 0.17781532 -0.18973437 -0.42007557 0.12975742
0.2088597 -0.115743645 0.5827225 -0.2924685 -0.561242 0.12288902 -0.1214521 0.28010666
-0.34260565 -0.019081257 0.1730929 0.37364754 -0.19327982 0.10422377 0.07611755 0.55499864
00000000: 6e78 4cbe 1813 fc3c 130a b5bc 741d 503e
00000010: 92ca 343f 936d d9bd 5b39 4e3e 6b1c d2be
00000020: 14cc a6bd f306 a53e 264a 63be c224 babe
00000030: 3815 363e ba49 42be 2514 d7be 21df 043e
00000040: 51df 553e 010b edbd 4d2d 153f 6ebe 95be
00000050: 8ead 0fbf 3dad fb3d e1bb f8bd 246a 8f3e
00000060: 026a afbe 4c50 9cbc 443f 313e bb4e bf3e
00000070: 25eb 45be 4673 d53d 85e3 9b3d 6414 0e3f

muLayer.0.weight f4 [1, 32]
0.058622334 0.0047215107 0.113708846 -0.067236036 -0.036310703 -0.001474557 0.11221284 -0.043543953
-0.06641087 -0.0043559736 -0.002573916 0.011447727 -0.0621645 -0.068946846 -0.0013748716 -0.0007779617
-0.03957825 -0.0010238162 -0.025630433 -0.0023470928 0.017112657 -0.058915023 0.0021632016 -0.0029731563
0.00836293 0.016283326 0.08293477 0.009426631 -0.049987968 0.047846705 -0.003730788 0.008610395
00000000: f91d 703d e7b6 9a3b 2fe0 e83d 0cb3 89bd
00000010: 88ba 14bd ec45 c1ba d8cf e53d 255b 32bd
00000020: 6c02 88bd 8ebc 8ebb 25af 28bb 3f8f 3b3c
00000030: 34a0 7ebd 0134 8dbd 0935 b4ba 20f0 4bba
00000040: ce1c 22bd 9231 86ba eaf6 d1bc afd1 19bb
00000050: d82f 8c3c e150 71bd 80c4 0d3b 49d9 42bb
00000060: ac04 093c 9c64 853c b4d9 a93d 2872 1a3c
00000070: 2fc0 4cbd e8fa 433d 3c80 74bb 9d12 0d3c

sigmaLayer.0.weight f4 [1, 32]
-0.10464727 -0.12470265 -0.13604088 -0.16410452 -0.567781 -0.062371816 0.008452146 0.36464092
-0.10327279 -0.29294834 0.18972875 0.3868314 -0.18878174 0.08188185 0.39669985 -0.004933788
-0.06990264 -0.04037178 -0.4217245 0.1305229 0.40584126 0.032037318 -0.057679273 -0.14900066
0.26246703 -0.106053464 -0.2347231 -0.26922917 -0.118518814 0.06423302 -0.13257775 -0.36527535
00000000: 4f51 d6bd 1a64 ffbd 4d4e 0bbe 040b 28be
00000010: 185a 11bf 9779 7fbd df7a 0a3c 37b2 ba3e
00000020: af80 d3bd 53fd 95be 4148 423e c40e c63e
00000030: 0050 41be acb1 a73d 3e1c cb3e 9dab a1bb
00000040: 1e29 8fbd e15c 25bd 46ec d7be cca7 053e
00000050: 6dca cf3e 9039 033d 1a41 6cbd a193 18be
00000060: 1462 863e 8f32 d9bd 415b 70be 68d8 89be
00000070: feb9 f2bd 9a8c 833d 76c2 07be 5f05 bbbe
