model-ppo/from-paper/InvertedPendulum-v4_pol.pt (torch, 3880 bytes, 4 tensors)

inLayer.0.weight f4 [32, 4]
00000000: 830a d9be 631f efbd 5ff1 9dbd 0528 e2be
00000010: 1594 94be b2c9 92bd 3975 a6be 2d26 05be
00000020: 1d5d 8abe ba78 e9be 0988 ba3e ca61 e8be
00000030: a6a4 a0bd 748a a13e d1c6 0e3e 5746 e93c
00000040: 4c20 113f 129d e4be 4baf 183f 00d7 8f3e
00000050: f33a c83e d8f7 17be e143 81be a2a6 c33b
00000060: 45e5 1f3e 9b75 9b3d 497d 1fbc b030 b93e
00000070: c1a6 f3bd 90ae ebbd d36c 00bf fac6 bdbe
00000080: 7d95 b33e 9a49 52bc 8ab0 5ebe 0966 84bd
00000090: 524e fd3e cb68 e0be 93fb eebd 4cb8 83be
000000a0: 0d8e 4cbe 4869 23be fd7b 8abe 354d e9bd
000000b0: 90c4 82bd 948f be3e f235 c73e dcb1 383e
000000c0: 7c3b a33e 00db a33e 5e94 c4be 0bd9 38be
000000d0: 48d4 0c3f 50a9 2fbd 88b7 a0bd 6102 213d
000000e0: 6e60 023f 8371 be3e c14f a7be ba33 963e
000000f0: c030 fabe 782a 93be 3a2b 09bf 48b0 50be
00000100: ccaf 30be d31c 823e c443 0e3f c931 933e
00000110: 5f8f bc3e 4a36 4c3e 1424 58be ef5b b9be
00000120: 51a6 b53e adad 35be 8b2d 813e 3aba 163e
00000130: 56e1 163d e9fd fb3e 22b6 7abe ec47 b2be
00000140: 88d3 933e e2a4 bb3d 039b 273e f8b4 923d
00000150: b7d6 a73e 9fbc babe 8523 c83e b17e 2e3e
00000160: ace8 b4be 28a5 05bd 3aa3 b43e 5f86 f73d
00000170: c456 933e 09cf f4bd 9f60 f3bd 3afe bd3e
00000180: 4711 cb3e 2d9e b0bd 2a88 3c3d b07f 443e
00000190: 78ba c03e 83ce 613e 6241 93bc b4c8 56bc
000001a0: 3c19 0cbc f1dc 983a 383a b43d 30a9 293e
000001b0: 6fae 903e 8afd 173e f3a4 37bd 6d67 0cbe
000001c0: fb83 8abd 81c0 a4bd c533 0bbd 443c 07bd
000001d0: f9d6 843e e802 dabd 41b3 bdbe 7c7e 54be
000001e0: b0da a63e b81d 4fbe 591a f23c a934 08be
000001f0: a0e4 c33e e66f 953c 1e22 7e3d a060 58bb
-0.42390832 -0.116759084 -0.077120535 -0.44171157 -0.29019228 -0.071673766 -0.3251131 -0.13002844
-0.27024165 -0.4559992 0.36431912 -0.45387107 -0.07843904 0.31550944 0.1394303 0.028475923
0.56689906 -0.44651085 0.59642476 0.2809372 0.39107475 -0.14840639 -0.252471 0.005970792
0.15614803 0.07590791 -0.00973446 0.36169958 -0.1189704 -0.115079045 -0.5016605 -0.3706587
0.35074988 -0.012834931 -0.21747032 -0.06464774 0.49473816 -0.4382995 -0.11669078 -0.25726545
-0.19976063 -0.1595813 -0.2704772 -0.11391679 -0.063851476 0.37218916 0.38908345 0.18036598
0.3188132 0.3200302 -0.38394445 -0.18051545 0.55011415 -0.04288608 -0.07847506 0.03930891
0.5092839 0.37195978 -0.32678035 0.2933634 -0.48865318 -0.2874334 -0.53581583 -0.20379746
-0.17254561 0.25412616 0.5557215 0.2874892 0.36828133 0.19942585 -0.21107513 -0.36202952
0.35478452 -0.17742033 0.2523006 0.14719477 0.03683599 0.49217156 -0.2448354 -0.34820497
0.28872323 0.09162308 0.16367726 0.07163423 0.32781002 -0.3647203 0.390896 0.17040516
-0.35333765 -0.03262821 0.35280782 0.12086176 0.28777134 -0.11953551 -0.118836634 0.37108022
0.3966162 -0.0862392 0.046028294 0.19189334 0.37642264 0.22051434 -0.017975513 -0.013109375
-0.008550938 0.0011662525 0.08800167 0.16568446 0.28258082 0.14842811 -0.044835042 -0.13711329
-0.067634545 -0.0804453 -0.03398492 -0.03301646 0.2594526 -0.106450856 -0.37050822 -0.20751375
0.3258872 -0.2022618 0.02955358 -0.13301338 0.38260365 0.018241834 0.062044255 -0.0033016577

inLayer.0.bias f4 [32]
00000000: af32 a13e 7e16 783c 475e b53e e29c 0fbc
00000010: 7615 9fbc b1d3 fbbd 9fed da3d 5974 3d3e
00000020: 3650 bfbe 8eab 43be 5b91 953d 5fef 45be
00000030: bf3f 6f3c 62e9 21bd e302 afbe 9a38 863c
00000040: 23b9 e43d 2be1 8bbe 7379 cfbc 0f77 ccbb
00000050: 1132 3b3b 7e23 dcbc 886b debc 84c8 c3bd
00000060: 0626 4cbe 891a b1bc f873 8d3e 2e64 6b3d
00000070: 57b5 96be 946c 7b3d 45da 133e 916b 4d3d
0.3148398 0.015142081 0.3542349 -0.008765431 -0.019419413 -0.12296236 0.10689854 0.18501414
-0.37365884 -0.19108412 0.07303115 -0.19329594 0.014602601 -0.03952921 -0.3418189 0.016384412
0.111681245 -0.27320227 -0.025326466 -0.006239779 0.0028563777 -0.026872393 -0.027150884 -0.0955973
-0.1993638 -0.021619098 0.2762754 0.057468586 -0.29435226 0.061382845 0.14438732 0.05015141

muLayer.0.weight f4 [1, 32]
00000000: 1bc7 29bd e6b5 69bc 3a19 b9bd ae41 ad3c
00000010: c836 153c 336e fa3a 5899 443d 54c2 533d
00000020: 606c c13d 8ff1 ce3d 7af0 08bc d769 583d
00000030: ecf3 713a bc0b a93a 5c3f 92bd a4be 03bc
00000040: d473 62bd c56a 99bd a0ec c83a e895 b13d
00000050: 0310 ca3b 3638 b43c a4de 053d b99f 183d
00000060: fec5 75bc 424c 443a 7259 b5bb addd 203d
00000070: f900 ce3d e2e2 8bbc 02b1 973c c320 4fbc
-0.041449647 -0.014264559 -0.09038015 0.021149483 0.009107299 0.0019106328 0.047997802 0.051698998
0.09444499 0.101046674 -0.008358115 0.05283531 0.00092297676 0.0012897174 -0.07140991 -0.008041058
-0.055286244 -0.07491068 0.0015329309 0.086711705 0.0061664595 0.02199946 0.03268303 0.0372617
-0.015000818 0.000748817 -0.0055343444 0.039273906 0.10058779 -0.01707596 0.018517021 -0.012642088

sigmaLayer.0.weight f4 [1, 32]
00000000: eee0 163c 8f8b cfbc f534 0fbd 5d8c 233d
00000010: d2a3 943b bebe 293d 3aab 0fbd ae90 7cbd
00000020: 353c 1f3d a9e1 4ebd bb23 923c ecb6 053d
00000030: 0f02 0dbc 26e5 ec3c d0ac aebc 1ba4 463c
00000040: cebc c1bd 2b88 2cbb 7e98 9b3c c351 bdbc
00000050: 4757 efba 37c1 743a 05c8 3cbc cb54 97bd
00000060: 75de 9b3d d40e d93b c5f8 22be a009 413c
00000070: 81f1 47bd 1c91 b3bc 7034 e7bc e6dd 9bbd
0.009208901 -0.025335101 -0.034962613 0.039928783 0.0045361305 0.04144167 -0.035075404 -0.061661415
0.038875777 -0.050508175 0.017839303 0.03264515 -0.008606448 0.02891786 -0.021322638 0.012124087
-0.0945984 -0.002632628 0.018993612 -0.023110276 -0.0018260264 0.00093366526 -0.011522298 -0.0738922
0.0761079 0.006624082 -0.1591521 0.01178208 -0.0488143 -0.02191978 -0.028223246 -0.07610683
