model-reinforce/InvertedDoublePendulum-v4.pt (torch, 11331 bytes, 6 tensors)

weight f4 [32, 11]
0	0x3e55b22c	0.20868748
1	0xbcae7bb4	-0.02129922
2	0xbea3d6e7	-0.31999895
3	0x3d903f00	0.07043266
4	0xbe3e29b0	-0.1857059
5	0x3e8a3c51	0.26999143
6	0xbe8ae490	-0.27127504
7	0xbe64dcb0	-0.2234981
8	0xbe89db12	-0.2692495
9	0xbd604735	-0.05475541
10	0xbd11185f	-0.035423633
11	0xbe6fcfd0	-0.23419118
12	0x3ea6188b	0.324406
13	0xbe2377b0	-0.15963626
14	0x3e93654e	0.28788227
15	0xbe4ad6e2	-0.19808534
16	0x3d0fcc39	0.03510687
17	0x3e148b96	0.14506373
18	0x3c216502	0.009850742
19	0xbe51dec3	-0.20495133
20	0x3daffba4	0.085929185
21	0x3e98dd96	0.29856557
22	0x3c8ee955	0.017445246
23	0x3e1e0b36	0.15433964
24	0xbe29ea07	-0.1659318
25	0xbbf32730	-0.007420443
26	0xbe742f04	-0.2384606
27	0xbea1b029	-0.31579712
28	0xbe84b234	-0.25917208
29	0x3e858a2f	0.26081988
30	0xbe36e11a	-0.17859307
31	0xbe66e992	-0.22550038
32	0x3dfbdb59	0.122976966
33	0x3e88c058	0.26709247
34	0x3e21da52	0.15805939
35	0xbd8128bb	-0.06306597
36	0x3ddac27d	0.10681627
37	0x3d96963d	0.073528744
38	0xbe6c847e	-0.23097417
39	0xbddc3d75	-0.107539095
40	0x3daeda47	0.08537727
41	0x3cb8fa6e	0.022580352
42	0xbd153a88	-0.036432773
43	0xbda593e1	-0.08084846
44	0x3d6e36dd	0.05815779
45	0xbe37f53b	-0.17964642
46	0xbeb6f5be	-0.3573436
47	0xbe77142e	-0.24128792
48	0xbea97c42	-0.33102614
49	0xbd916f9f	-0.07101368
50	0x3e8b592e	0.27216476
51	0x3e041c22	0.12901357
52	0x3e736fdf	0.23773144
53	0xbe842a99	-0.2581375
54	0xbe88ad88	-0.26694894
55	0xbd9f7bd6	-0.07787292
56	0xbe083b61	-0.13303901
57	0x3dbe82ee	0.093023166
58	0x3deaced7	0.11465233
59	0xbdb04a00	-0.086078644
60	0xbd2bbcac	-0.04192798
61	0xbdb56d70	-0.08858764
62	0x3e65d8d2	0.22445992
63	0xbded80f0	-0.115968585
64	0x3e8e3080	0.27771378
65	0xbd95b1df	-0.07309317
66	0x3d881050	0.06643736
67	0xbbade2d4	-0.005306581
68	0x3e97a4b6	0.29617852
69	0xbd927c51	-0.07152618
70	0x3e023640	0.12716007
71	0xbd90afd2	-0.07064785
72	0xbd065f65	-0.03280582
73	0x3e94ad15	0.290383
74	0xbe37698d	-0.17911358
75	0xbe93797c	-0.28803623
76	0x3e2f1083	0.17096142
77	0xbbdb6727	-0.0066956463
78	0xbe7a6979	-0.24454297
79	0x3e54d501	0.2078438
80	0x3e74c8b4	0.23904687
81	0xbe6fb54b	-0.23409002
82	0x3d2fac50	0.04288894
83	0x3ea03bba	0.31295568
84	0x3e812a33	0.25227508
85	0x3e8a25d2	0.2698198
86	0x3e4f33b6	0.2023457
87	0x3e93f14b	0.2889503
88	0xbd212018	-0.039337248
89	0x3e0e92c3	0.13923173
90	0xbe188896	-0.14895853
91	0xbe19470f	-0.14968513
92	0xbd248126	-0.040162228
93	0x3e6ada5e	0.22934863
94	0x3e4de88e	0.20108244
95	0xbdd9cdba	-0.10634942
96	0xbe993dfd	-0.29930106
97	0xbd9650ab	-0.07339605
98	0xbdb17919	-0.08665676
99	0x3e62cf3c	0.22149366
100	0x3cee6b86	0.029104006
101	0xbe532bf7	-0.2062224
102	0x3e7575f0	0.23970771
103	0xbdc85550	-0.09781897
104	0x3da99e73	0.08282175
105	0xbd85fea4	-0.065427095
106	0x3e58a5d1	0.21157004
107	0x3e892770	0.267879
108	0x3e03813b	0.12842266
109	0xbd8d33a3	-0.068946145
110	0xbe178f08	-0.14800656
111	0x3e54ef1b	0.20794336
112	0x3eb1b8ff	0.34711453
113	0x3e802e02	0.250351
114	0xbe3e941e	-0.1861119
115	0xbe66e5b8	-0.22548568
116	0x3d99fdaf	0.075190894
117	0x3e92523f	0.28578374
118	0xbe930a37	-0.2871873
119	0x3e333a03	0.17502598
120	0xbe63d84c	-0.2225048
121	0x3e57d940	0.21078968
122	0x3e5ab7b1	0.21359135
123	0xbe9f97e4	-0.3117057
124	0xbd5a3517	-0.053273287
125	0x3c52eb2c	0.012873452
126	0x3e6428a9	0.22281136
127	0x3e14d32d	0.14533682
128	0x3d13f8c5	0.036125917
129	0x3ce1ff42	0.027587537
130	0x3dc8c6bc	0.098035306
131	0xbe6d4478	-0.2317065
132	0x3dbf56d7	0.09342735
133	0xbc0c298c	-0.008554827
134	0xbc7e5e67	-0.015525437
135	0x3e8cf0c0	0.27527428
136	0xbe636165	-0.22205122
137	0xbe686724	-0.22695595
138	0x3e3302f0	0.1748159
139	0x3e717a0e	0.23581716
140	0x3e005509	0.12532438
141	0xbe1d5497	-0.153643
142	0xbe1f21a7	-0.15540181
143	0x3e3cf34c	0.18452185
144	0xbe9c6ea5	-0.30553165
145	0x3dc20be8	0.09474927
146	0xbe3482d7	-0.17628036
147	0x3e847840	0.25872993
148	0xbe4fabcb	-0.20280378
149	0xbdc9a9e2	-0.09846856
150	0x3e65964c	0.22420615
151	0x3cac3538	0.02102147
152	0x3e292d72	0.16521242
153	0xbdf7be97	-0.12096899
154	0xbe7f60f3	-0.24939327
155	0xbafc7d3e	-0.0019263399
156	0xbdf489a2	-0.11940314
157	0xbe4f976e	-0.2027261
158	0x3d09db4a	0.033656396
159	0x3e8479b4	0.25874102
160	0xbdeca2da	-0.11554499
161	0xbe172346	-0.1475955
162	0xbe0066d1	-0.12539221
163	0xbe5ab487	-0.21357928
164	0x3e4edada	0.20200673
165	0xbe008864	-0.12552029
166	0xbe69a724	-0.22817665
167	0xbd167dd8	-0.036741108
168	0x3ebec2c0	0.37257957
169	0x3e7b2f2c	0.24529713
170	0xbd89ec65	-0.06734542
171	0xbdb99af0	-0.09062755
172	0xbc7d1fa4	-0.015449438
173	0x3e2d2980	0.16910362
174	0xbe045a10	-0.12924981
175	0x3d36bbd6	0.044612728
176	0xbd940139	-0.07226796
177	0x3dad71f3	0.08469
178	0xbcb67dd5	-0.022276798
179	0x3ba721fb	0.0051004863
180	0xbe64529d	-0.2229714
181	0xbe0f16c7	-0.13973533
182	0x3d400762	0.04688204
183	0x3bada097	0.005298685
184	0x3e4c78c7	0.19967948
185	0x3dbeed3a	0.09322591
186	0x3dcdc919	0.10048122
187	0x3e124053	0.1428235
188	0x3b9f3956	0.00485913
189	0xbe74e65b	-0.23915999
190	0xbd80c372	-0.06287278
191	0x3e6cb574	0.23116094
192	0xbe8d7641	-0.27629283
193	0x3e312783	0.17300229
194	0x3c1387a0	0.0090045035
195	0x3e5788f2	0.21048334
196	0xbc87da9d	-0.016583735
197	0x3e96dcce	0.29465336
198	0x3b7a3d31	0.0038183446
199	0xbe69d578	-0.22835338
200	0xbdaf52af	-0.085606925
201	0xbe219b30	-0.15781856
202	0xbe84615d	-0.25855532
203	0x3e6a8db0	0.22905612
204	0x3deb7654	0.11497179
205	0x3e1806d1	0.1484635
206	0x3e681d09	0.22667326
207	0xbe39bd89	-0.18138708
208	0x3e2d06c2	0.16897109
209	0xbe01c952	-0.12674454
210	0x3e05193a	0.12997904
211	0xbe8e4787	-0.27788946
212	0xbc7669a6	-0.015039837
213	0x3eb7d62b	0.35905585
214	0x3ea7081b	0.3262337
215	0x3e7c0e3b	0.24614803
216	0x3dbb09c2	0.091327205
217	0xbdf197cc	-0.11796531
218	0x3e005223	0.12531333
219	0xbd8cb983	-0.06871321
220	0xbe1263a8	-0.14295828
221	0x3ec09fdc	0.37621963
222	0xbe80676f	-0.25078914
223	0x3cd98c00	0.026556015
224	0x3e679fa2	0.22619489
225	0x3b19622d	0.0023404465
226	0x3d156527	0.03647342
227	0xbe8efbad	-0.27926388
228	0xbe908a64	-0.28230584
229	0x3e58910f	0.21149085
230	0xbe8836cf	-0.26604316
231	0xbc570734	-0.013124276
232	0xbd822dd9	-0.06356401
233	0xbcb2fc69	-0.021848874
234	0xbe7eba17	-0.24875675
235	0xbe376434	-0.17909318
236	0xbe1d6dc3	-0.15373902
237	0xbe33c196	-0.17554316
238	0xbd485685	-0.048910636
239	0x3e85438a	0.2602809
240	0xbe8a817d	-0.27051917
241	0x3d1a36b8	0.03764984
242	0x3e477527	0.19478284
243	0x3de5c2e9	0.11218817
244	0xbeac188e	-0.33612484
245	0x3dcb9886	0.09941201
246	0x3e1b95b1	0.15193821
247	0xbdcc4271	-0.0997361
248	0xbe1962e1	-0.14979126
249	0xbe88bc2a	-0.26706058
250	0xbe0b9d1c	-0.13634151
251	0x3d72a906	0.059243225
252	0xbe6d2cab	-0.2316157
253	0xbdd33167	-0.10312157
254	0x3e520c68	0.20512545
255	0x3d4ce21c	0.050020322

bias f4 [32]
0	0x3e1edd9a	0.15514222
1	0xbd7972c1	-0.060900453
2	0x3e9670fb	0.29383072
3	0xbe5e6f22	-0.21722081
4	0x3dbf7324	0.09348133
5	0xbba138e7	-0.0049201134
6	0xbe0ea513	-0.13930158
7	0x3e5b3833	0.21408157
8	0xbd8c25b9	-0.068431325
9	0x3ce2115a	0.027596164
10	0xbe5f7943	-0.21823601
11	0xbe2bd699	-0.16781081
12	0x3e9c7de9	0.30564812
13	0xbcd24787	-0.025668873
14	0x3e40cb47	0.18827544
15	0x3de8ac40	0.11360979
16	0xbe6bdcf9	-0.23033513
17	0x3e52048b	0.20509546
18	0xbea1a5ce	-0.3157181
19	0xbddf1740	-0.108931065
20	0xbe69cf30	-0.22832942
21	0xbd28aeaf	-0.041182216
22	0xbe01314a	-0.12616459
23	0x3e005092	0.12530735
24	0x3d6ab1bf	0.057298418
25	0x3d6f5494	0.05843027
26	0xbe318836	-0.17337117
27	0x3dff049e	0.124520525
28	0xbdfd3d8c	-0.12365255
29	0xbe734917	-0.2375835
30	0x3da942fe	0.08264731
31	0x3e75e4ac	0.24013013

weight f4 [32, 32]
0	0x3d75f6e8	0.06004992
1	0xbdc6b9f8	-0.097034395
2	0x3e271239	0.16315545
3	0xba5fbce2	-0.00085349206
4	0x3da74680	0.08167744
5	0x3d7c7d79	0.061643098
6	0x3d0015b7	0.03127071
7	0x3cebde9e	0.028792676
8	0xbe0879aa	-0.13327661
9	0x3e2adf78	0.16686809
10	0x3e234636	0.15944752
11	0x3d6691b7	0.05629131
12	0x3df8e33b	0.12152716
13	0xbdab9033	-0.08377113
14	0x3df1dde3	0.118099
15	0x3d9b5cab	0.075860344
16	0xbe3dc9e8	-0.18534052
17	0xbd3f1fa7	-0.046661045
18	0x3e0dfcb4	0.1386593
19	0xbd184796	-0.037177645
20	0xbe525b90	-0.20542741
21	0x3d105103	0.03523351
22	0xbe3f5fb5	-0.18688853
23	0x3dd98e01	0.10622788
24	0xbc56cd0c	-0.01311041
25	0xbd235917	-0.039879885
26	0xbcd5b3a1	-0.02608663
27	0x3da94df7	0.08266824
28	0x3e116a38	0.14200675
29	0x3e2c3adf	0.16819333
30	0xbe0bb508	-0.13643277
31	0x3e19b19d	0.1500916
32	0xbd473c1b	-0.048641305
33	0xbdb10ca2	-0.08644988
34	0xbe4b4e77	-0.1985415
35	0x3b3b8e3f	0.002861872
36	0x3d8dc0b9	0.069215246
37	0xbc32ce22	-0.010913404
38	0x3da164c0	0.07880545
39	0xbe77595f	-0.24155186
40	0xbd60f3bc	-0.054919943
41	0xbd0b32d8	-0.033984035
42	0xbe5b8faf	-0.2144153
43	0x3e075f45	0.13219936
44	0x3dde03ea	0.1084059
45	0x3db303e4	0.087409765
46	0x3dd0dfe8	0.10198957
47	0xbe20d708	-0.15707028
48	0x3d472f69	0.0486292
49	0x3dda1d67	0.10650139
50	0x3e141e53	0.14464693
51	0xbdbd4a20	-0.09242654
52	0xbe04ecec	-0.12981004
53	0xbd9df286	-0.07712273
54	0x3e0c22a9	0.13685097
55	0x3d4cd92c	0.0500118
56	0xbe5bba5a	-0.21457806
57	0xbce37123	-0.027763909
58	0x3d904c9f	0.07045864
59	0xbd992cf0	-0.07479274
60	0x3e0d8367	0.13819657
61	0xbd1e491d	-0.038643945
62	0x3d30d043	0.043167364
63	0x3dc62fd4	0.09677091
64	0xbd28133e	-0.041033976
65	0x3cd1ba0f	0.025601415
66	0xbd7129ba	-0.058877684
67	0xbd858018	-0.065185726
68	0xbe1f5975	-0.15561469
69	0x3e528869	0.20559849
70	0x3db8b2eb	0.09018501
71	0x3cdfe5bd	0.027331227
72	0x3d997e9b	0.07494851
73	0xbddfa061	-0.10919262
74	0x3df13b6b	0.11778911
75	0x3d350d6b	0.04420225
76	0x3d93f602	0.07224657
77	0x3c9d9baa	0.019239265
78	0xbe2a1484	-0.16609389
79	0xbe1c1379	-0.15241803
80	0xbdb8dcc0	-0.0902648
81	0x3d3cc77e	0.046088688
82	0x3da4e8e6	0.08052234
83	0x3cc93506	0.024561416
84	0x3d2543e9	0.040347967
85	0x3c17bcf6	0.00926136
86	0xbe03e058	-0.12878549
87	0xbda5795a	-0.080797866
88	0xbe044291	-0.12916018
89	0xbdffcf73	-0.1249074
90	0xbdee484c	-0.11634883
91	0x3df7f736	0.121076986
92	0xbde56d0f	-0.11202442
93	0x3da98147	0.08276611
94	0xbd8c26b8	-0.068433225
95	0x3dbb5588	0.09147173
96	0xbd628c82	-0.05530978
97	0xbe41d70f	-0.18929695
98	0x3e1eadaf	0.15495943
99	0xbdee0b04	-0.11623195
100	0x3d1ac722	0.037787564
101	0x3cf70dd6	0.030157965
102	0x3e2e0405	0.16993721
103	0x3c95b9aa	0.018277008
104	0xbe46a95f	-0.19400547
105	0xbd2e527b	-0.04255913
106	0xbd927fdd	-0.07153294
107	0xbe316e26	-0.17327175
108	0xbc966be2	-0.01836199
109	0xbddfc1ca	-0.10925634
110	0xbe5ad17a	-0.21368971
111	0xbb243478	-0.0025055688
112	0xbe2e79fe	-0.17038724
113	0x3cd8a578	0.02644609
114	0x3dc66c52	0.09688629
115	0xbe5ffcd5	-0.21873792
116	0xbe26f614	-0.16304809
117	0xbda3a864	-0.07991102
118	0x3c9d39a4	0.019192524
119	0xbe01e6bf	-0.12685679
120	0xbcd895c4	-0.026438601
121	0x3db9b965	0.09068564
122	0xbda5ae21	-0.08089853
123	0x3e1143fe	0.14186093
124	0xbd9dc79d	-0.07704089
125	0xbdcc5219	-0.099765964
126	0xbd77eda4	-0.060529366
127	0x3e00aefe	0.12566754
128	0xbcfcac75	-0.030843953
129	0xbc9bc52c	-0.019014917
130	0x3d8b7f4e	0.06811391
131	0x3d621935	0.05519982
132	0xbdc1a3a5	-0.09455041
133	0x3d75d3a1	0.06001628
134	0x3d0cdc2b	0.034389656
135	0x3df0a8a0	0.11750913
136	0x3df87173	0.12131014
137	0x3d8b8ae6	0.06813602
138	0xbce3bbf1	-0.027799578
139	0x3d156a36	0.036478244
140	0xbe2a340c	-0.16621417
141	0xbd3341ce	-0.043763928
142	0x3d4add9b	0.049527746
143	0x3caa5a1b	0.020794919
144	0x3d9e934b	0.07742938
145	0xbd99b6d0	-0.07505572
146	0x3e36114b	0.17780034
147	0xbdb12fd4	-0.086517006
148	0x3d9850d8	0.07437295
149	0x3e2fb61a	0.1715931
150	0xbd633782	-0.05547286
151	0x3c641459	0.013920867
152	0xbe155c68	-0.14586031
153	0xbdaa0178	-0.083010614
154	0x3da9a8b2	0.08284129
155	0xbc42eba3	-0.0118970005
156	0x3e0542bd	0.1301374
157	0x3e721397	0.23640285
158	0xbc666187	-0.014061338
159	0x3ce5520f	0.02799323
160	0x3e596de5	0.21233328
161	0xbc65fd4e	-0.014037443
162	0xbe11912d	-0.14215536
163	0xbdedecf5	-0.116174616
164	0x3dc21137	0.0947594
165	0x3dd176a6	0.102277085
166	0x3c74b28a	0.014935145
167	0xbb787599	-0.003791189
168	0xbdccd1c3	-0.100009464
169	0xbd3d2668	-0.046179205
170	0xbdeb2d4a	-0.114832476
171	0xbd251c40	-0.040310144
172	0xbe31c53b	-0.17360394
173	0x3de94e4a	0.113918856
174	0x3d430179	0.047608826
175	0xbca533b6	-0.02016626
176	0x3d928b77	0.07155507
177	0x3da2ab4c	0.079428285
178	0x3deccdaa	0.11562665
179	0x3debd570	0.11515319
180	0x3d07e557	0.0331777
181	0x3dee4062	0.11633374
182	0x3d2bc5e8	0.041936785
183	0xbe0b2209	-0.13587202
184	0x3d8a8fe6	0.06765728
185	0x3cee5ba8	0.02909644
186	0x3d85b272	0.06528176
187	0x3d751b7f	0.059840675
188	0xbe15f31c	-0.1464352
189	0x3e151cf3	0.14561825
190	0xbe434989	-0.1907102
191	0xbdd3da0a	-0.10344322
192	0x3cba7bb7	0.02276407
193	0x3df89a8b	0.12138852
194	0x3e17f7ad	0.14840575
195	0x3e2f48f7	0.17117678
196	0xbe4d21a8	-0.2003237
197	0xbe0e53b5	-0.13899119
198	0xbdfdd3fb	-0.12393948
199	0x3e4766d9	0.19472827
200	0xbd341a81	-0.04397059
201	0x3e042a0c	0.12906665
202	0x3e59cc10	0.2126925
203	0xbdd6cd5a	-0.104883865
204	0x3d5abea5	0.05340447
205	0x3e33027d	0.17481418
206	0x3c7d1dfc	0.015449043
207	0x3e627d1f	0.22118042
208	0xbbf09942	-0.0073424885
209	0x3c9a7e83	0.018859154
210	0x3cb56213	0.022141492
211	0x3e0e2835	0.13882525
212	0x3e06395d	0.1310782
213	0x3dcd4b21	0.10024095
214	0xbe4284a4	-0.18995911
215	0xbce0c08b	-0.027435562
216	0x3cc1ed44	0.023672707
217	0xbe12304f	-0.14276241
218	0x3d332987	0.043740775
219	0x3dd8f2e3	0.10593202
220	0x3e448406	0.19190988
221	0xbd495da8	-0.049161583
222	0xbc803ed0	-0.015654951
223	0x3e758fba	0.23980609
224	0x3d7398c9	0.05947188
225	0xbe25fc75	-0.16209586
226	0xbd4d0992	-0.050057955
227	0xbcde2da3	-0.02712137
228	0x3da8dac5	0.08244852
229	0x3c89a6d6	0.016803186
230	0x3e317c8a	0.17332664
231	0xbdbb03fa	-0.09131618
232	0xbde2826b	-0.110600315
233	0xbe1f45a2	-0.15553907
234	0x3e38d62e	0.18050453
235	0xbd19aa33	-0.03751583
236	0x3d370f53	0.04469235
237	0xbe0f0815	-0.13967927
238	0xbe46b5b8	-0.19405258
239	0xbe5732a9	-0.21015419
240	0x3e0db3d1	0.13838126
241	0x3debb2a3	0.115086816
242	0xbd756754	-0.059912995
243	0xbe1080d0	-0.14111638
244	0xbd856ee4	-0.06515291
245	0xbd9556dc	-0.07291958
246	0xbd1851b2	-0.037187286
247	0x3d60081c	0.054695234
248	0xbc2a3616	-0.010388872
249	0xbdca3beb	-0.0987471
250	0x3d18ab55	0.03727277
251	0xbdffd785	-0.12492279
252	0xbb1a7388	-0.0023567397
253	0x3ddb7cc9	0.1071716
254	0x3dc9ebaf	0.09859406
255	0x3b84c60e	0.0040519303

bias f4 [32]
0	0xbe24cd1b	-0.16093867
1	0x3d9645d8	0.073375404
2	0xbe3375e3	-0.17525439
3	0xbd7cfd62	-0.061765082
4	0x3d0dcd75	0.034619767
5	0xbe2a537b	-0.16633408
6	0xbdc4f51d	-0.09617064
7	0xbe29cdd0	-0.16582417
8	0xbe12636a	-0.14295736
9	0x3e11468a	0.14187065
10	0xbd05ed7d	-0.03269719
11	0xbd1a4f31	-0.03767318
12	0x3d94b578	0.07261175
13	0xbe298c6d	-0.16557474
14	0xbe5f60eb	-0.21814315
15	0xbd063614	-0.032766417
16	0xbe53ffe5	-0.20703085
17	0x3dc0baf4	0.094106585
18	0x3dfac7b6	0.12245123
19	0xbc7565aa	-0.014977852
20	0xbe60181d	-0.21884198
21	0x3e5f886c	0.21829385
22	0x3e0ab363	0.13544993
23	0x3e1355c0	0.1438818
24	0xbdad1123	-0.08450534
25	0x3ddc2d9c	0.10750887
26	0x3e3d2132	0.18469694
27	0xbdc542b6	-0.09631865
28	0x3e6260c3	0.22107224
29	0x3d6f4863	0.058418643
30	0x3caae489	0.020860927
31	0xbd142586	-0.036168598

weight f4 [1, 32]
0	0xbe3b4805	-0.18289192
1	0x3d83a00e	0.064270124
2	0xbe22fdcc	-0.15917128
3	0xbd9d92f9	-0.076940484
4	0xbd561897	-0.052269544
5	0x3e18431b	0.14869349
6	0xbe0c1165	-0.1367851
7	0xbdb5f35f	-0.0888431
8	0x3d5ae825	0.053444047
9	0x3ddb77fd	0.10716245
10	0x3c9a5a80	0.018841982
11	0x3e56f71b	0.20992701
12	0xbe0fc00e	-0.14038107
13	0x3b8e725c	0.004347129
14	0x3e127ba9	0.14304985
15	0x3e41ce97	0.18926464
16	0x3dc20c2b	0.09474977
17	0xbe14c62e	-0.14528725
18	0x3e28489e	0.16433951
19	0x3e4b9d6a	0.19884267
20	0x3e13a4b5	0.144183
21	0x3db499b8	0.08818382
22	0x3e0b588c	0.13607997
23	0x3dedbaca	0.11607893
24	0x3ca83daf	0.020537226
25	0x3d35712a	0.044297375
26	0x3df5eb27	0.120077424
27	0x3c1c92d0	0.009556487
28	0x3cafda98	0.021466538
29	0xbd1d76c7	-0.038443353
30	0x3e2ff757	0.17184196
31	0xbdd35b88	-0.103201926

weight f4 [1, 32]
0	0xbc0bc9ec	-0.008532029
1	0x3cb1d494	0.02170781
2	0x3dac7637	0.08420985
3	0xbc8a4aeb	-0.016881427
4	0x3e338677	0.17531763
5	0x3df8c241	0.12146426
6	0xbe254ad7	-0.1614183
7	0x3dfeb95f	0.124377005
8	0x3cd11560	0.025522888
9	0xbe0dc0eb	-0.13843124
10	0xbe28927e	-0.16462132
11	0xbc994711	-0.018710645
12	0xbd0316c7	-0.032004144
13	0x3db68607	0.089122824
14	0x3e1f1547	0.1553546
15	0x3dbe5616	0.09293763
16	0x3e445b46	0.19175443
17	0xbe05e91c	-0.13077205
18	0xbdc4b1b5	-0.096042074
19	0xbd9aaa3e	-0.07552002
20	0x3e4d29cf	0.2003548
21	0xbe186502	-0.14882281
22	0xbde78d50	-0.1130625
23	0xbc1d52d0	-0.009602264
24	0x3e360515	0.17775376
25	0xbe7cb67f	-0.24678992
26	0xbdb4f8cb	-0.08836516
27	0xbbcd356c	-0.006262472
28	0xbe817155	-0.25281778
29	0xbe509692	-0.20369938
30	0xbd95aa90	-0.07307923
31	0x3e0360d5	0.12829907
