model-reinforce/InvertedPendulum-v4.pt (torch, 10311 bytes, 6 tensors)

weight f4 [32, 4]
0.0040978645 -0.50360096 0.2812154 -0.5469067 0.34092656 -0.08439961 -0.14957649 0.4703944
0.37381342 0.37098366 -0.0018151938 -0.040621586 0.031355698 -0.40097636 -0.21904492 -0.4063007
-0.10035028 0.20514868 -0.38732308 0.329926 0.47113016 -0.49698296 -0.27780393 -0.09747399
0.22935218 0.34081307 0.093149744 -0.2435149 0.34605315 -0.48386183 0.31039506 -0.13735591
-0.27844396 0.06764124 0.2313308 -0.5526659 -0.25541776 0.10971731 0.45273617 0.390331
0.41831964 0.06739221 -0.4156461 0.2523946 0.5127478 0.009173217 -0.27379504 0.010248222
0.15869 -0.32769 -0.021020943 -0.5130678 -0.24970573 0.03845817 -0.26342428 -0.20885321
0.38441348 -0.17784448 0.36130473 0.45491192 0.4396437 0.38839948 0.25082913 0.35420173
-0.04637966 -0.23024566 -0.39846808 -0.29541475 0.4802239 0.29005814 0.4383537 -0.3569873
-0.019076632 -0.05307297 -0.1751811 -0.1394673 -0.4777369 -0.48215532 -0.47514346 -0.37653092
-0.09431047 0.08602728 0.34946385 -0.24079174 -0.17945151 -0.40561378 -0.45532164 0.23297943
-0.4311115 0.046023257 -0.037175916 -0.17211632 0.07050587 0.23150058 0.42432368 -0.41734192
0.08767897 -0.25832504 -0.11193009 -0.23134816 -0.3587961 0.28881702 0.0066820728 0.5338382
0.14087415 0.13541815 -0.113406934 -0.41105595 -0.10849824 0.052511822 -0.2912553 -0.36665297
-0.028184202 0.38695022 -0.3332658 -0.47631568 0.5098904 -0.28481895 0.16378538 -0.26112387
-0.17848992 -0.3327089 -0.2444858 0.013260276 -0.1961632 -0.19753724 0.0543409 -0.4634996
00000000: 6147 863b feeb 00bf 77fb 8f3e 1402 0cbf
00000010: ed8d ae3e b4d9 acbd 942a 19be 89d7 f03e
00000020: 7964 bf3e 92f1 bd3e cceb edba d262 26bd
00000030: d56e 003d c64c cdbe 504d 60be a506 d0be
00000040: 7384 cdbd 7f12 523e 364f c6be 10ec a83e
00000050: f937 f13e 8d74 febe 513c 8ebe 71a0 c7bd
00000060: 4cdb 6a3e 0d7f ae3e 4bc5 be3d f85b 79be
00000070: e12d b13e bdbc f7be 1aec 9e3e 07a7 0cbe
00000080: 3590 8ebe 7e87 8a3d fbe1 6c3e 837b 0dbf
00000090: 1ec6 82be 78b3 e03d 09cd e73e 77d9 c73e
000000a0: fe2d d63e ed04 8a3d 91cf d4be dd39 813e
000000b0: 7143 033f 434b 163c dd2e 8cbe 29e8 273c
000000c0: a27f 223e fcc6 a7be 1d34 acbc 6958 03bf
000000d0: dcb2 7fbe 5086 1d3d 8cdf 86be 9edd 55be
000000e0: d8d1 c43e dd1c 36be effc b83e 37ea e83e
000000f0: fb18 e13e 4cdc c63e ad6c 803e ee59 b53e
00000100: 99f8 3dbd 85c5 6bbe 0204 ccbe 9a40 97be
00000110: e8df f53e 8082 943e e56f e03e 0ac7 b6be
00000120: 9946 9cbc 0b63 59bd ad62 33be 84d0 0ebe
00000130: ee99 f4be 10dd f6be 0146 f3be a9c8 c0be
00000140: d925 c1bd 122f b03d edec b23e 1c92 76be
00000150: 23c2 37be 9cac cfbe eb1f e9be 2992 6e3e
00000160: a6ba dcbe e282 3c3d c645 18bd 433f 30be
00000170: 6265 903d 7d0e 6d3e f440 d93e d7ad d5be
00000180: 0891 b33d 2e43 84be 9a3b e5bd 88e6 6cbe
00000190: 1fb4 b7be d3df 933e 4af5 da3b 9fa9 083f
000001a0: 5041 103e 0eab 0a3e e541 e8bd ed75 d2be
000001b0: 5334 debd a316 573d 6a1f 95be f0b9 bbbe
000001c0: 8ee2 e6bc 571e c63e d1a1 aabe a6df f3be
000001d0: 2d88 023f cad3 91be 5bb7 273e 07b2 85be
000001e0: 10c6 36be d258 aabe 7c5a 7abe a141 593c
000001f0: 02df 48be 3447 4abe 9094 5e3d d24f edbe

bias f4 [32]
-0.006891175 -0.35746512 -0.39762267 -0.10048424 -0.24240479 -0.12789777 -0.078753024 0.36864182
0.06658448 -0.25700536 0.3857821 0.46685475 0.4286223 -0.2232695 -0.37547863 -0.065725744
0.24051465 -0.29678014 -0.3058775 -0.040887766 -0.10933044 0.31887332 -0.021879364 0.042124577
-0.4420227 0.16839656 0.20861351 -0.20779727 -0.0117323045 0.37395775 -0.35046408 0.23098554
00000000: 5ecf e1bb ab05 b7be 3395 cbbe aeca cdbd
00000010: f638 78be a2f7 02be 4449 a1bd 9fbe bc3e
00000020: 725d 883d 3596 83be 3b85 c53e 9607 ef3e
00000030: 6274 db3e c3a0 64be bc3e c0be 389b 86bd
00000040: 7949 763e 91f3 97be fa9b 9cbe ee79 27bd
00000050: a3e8 dfbd 5d43 a33e 5a3c b3bc d28a 2c3d
00000060: cd50 e2be 2670 2c3e c89e 553e cfc8 54be
00000070: da38 40bc 6477 bf3e 0770 b3be 7987 6c3e

weight f4 [32, 32]
0.17229256 -0.1734491 0.0054918714 -0.09168816 -0.1821415 -0.06281021 -0.025097352 0.18976502
-0.07085209 -0.0063848523 0.074298665 0.19279173 -0.0011136811 -0.08771838 -0.13505006 0.048669193
-0.08755361 -0.056403015 -0.02928136 -0.1093135 0.11745371 -0.08430981 0.18845859 0.036654733
0.03935353 -0.18767017 -0.006052974 -0.09806761 0.13744222 0.022108726 -0.119041875 0.17041583
-0.100448355 0.21182108 0.15614024 0.09324659 -0.015063162 -0.1877087 0.08452944 0.029023463
-0.07129395 0.18167686 -0.0047821617 0.042349096 0.10034749 -0.1396452 -0.07376483 0.20466089
-0.23554648 0.13354103 -0.059225317 -0.15977994 0.0036383658 0.15317439 -0.030765869 0.07174863
-0.17157412 0.2057085 -0.21016818 -0.1382504 -0.15469801 -0.22451451 0.107470214 0.021268636
-0.23256014 0.2023479 0.107284635 -0.12690295 0.09406683 -0.022912396 -0.066404246 0.05929966
0.015736816 0.055751387 -0.13287534 -0.0455749 -0.026299752 -0.1594375 -0.010238595 -0.053267602
-0.09331581 -0.11471171 -0.03834532 -0.21850008 -0.09710186 0.013118905 -0.12942825 0.019547896
-0.17395782 0.23251201 -0.034098692 -0.06566723 -0.21708564 -0.038287934 0.046076078 0.0128270015
0.166037 0.009304481 -0.03538772 0.18060972 0.023347924 0.08624165 -0.029953953 -0.009964615
0.10669507 0.017828092 0.15754908 0.121143036 0.121077076 0.0139720915 -0.007051799 -0.16910098
-0.0012393318 -0.103122585 0.012283726 -0.0014922582 -0.10841057 0.0029660182 -0.12054862 0.14439195
-0.06605901 -0.07545967 0.1408995 0.18465108 0.2340097 -0.029855436 -0.030888114 -0.117555976
0.18854018 -0.15124305 0.045993995 -0.024673617 0.099318825 0.21297203 -0.121661626 0.13741666
0.03964793 -0.061111823 0.07664301 0.023423785 -0.10590903 0.06136057 -0.21427485 -0.20689182
0.059267778 0.046641845 -0.0357785 -0.04544773 0.04220543 0.14926635 0.1564204 0.082375824
-0.12614423 -0.11273353 0.07244953 0.08022714 -0.03809283 0.16334091 0.082373545 0.222548
0.081882596 -0.18506739 -0.14377375 -0.06172943 0.013311878 0.25781578 0.019468961 0.12280897
0.2032331 -0.007503151 -0.060198534 0.14966044 0.04812316 0.025279446 -0.12764154 0.06943992
0.098061085 0.13543718 -0.005787708 0.096408695 -0.084810995 -0.09985583 -0.07025645 -0.108802065
0.15955795 -0.199552 -0.047258716 0.04429953 0.011601536 0.067341045 -0.072978534 0.1666187
-0.07641289 -0.1333002 -0.04527594 -0.15967731 0.16609325 0.042871125 0.007214858 0.03593562
0.028991373 0.18275812 0.1611293 -0.060991786 -0.1534204 -0.10569297 0.09733154 -0.02603132
-0.005317972 -0.13345614 0.028096756 -0.087882735 0.15388663 0.17401062 -0.20482923 -0.09978238
-0.12670298 0.10925921 -0.021047233 0.032734446 -0.026771145 -0.19847079 -0.14530191 -0.21850994
-0.03671692 -0.003923876 0.11286826 -0.019465858 0.021454155 0.003468122 -0.1449538 0.12055699
-0.043111116 0.17091033 0.06328831 0.114204966 -0.15155941 -0.06745227 -0.028912926 0.14845298
-0.048286136 -0.085891336 -0.170758 0.065830514 0.042563017 0.109213546 0.10970375 -0.030756928
-0.04115928 -0.018072577 -0.18131846 -0.1290018 -0.13795438 -0.040580824 -0.19667803 0.054298263
00000000: 766d 303e a49c 31be 28f5 b33b 01c7 bbbd
00000010: 4d83 3abe a4a2 80bd f698 cdbc c351 423e
00000020: e71a 91bd 0638 d1bb e629 983d 326b 453e
00000030: f0f8 91ba b2a5 b3bd 904a 0abe 5959 473d
00000040: 4f4f b3bd d906 67bd 76df efbc c2df dfbd
00000050: 928b f03d 9faa acbd 4afb 403e 4623 163d
00000060: 2b31 213d 9c2c 40be 0758 c6bb acd7 c8bd
00000070: a7bd 0c3e 5c1d b53c 3acc f3bd 7d81 2e3e
00000080: deb7 cdbd a0e7 583e 3ae3 1f3e 11f8 be3d
00000090: 7bcb 76bc b636 40be c51d ad3d 9dc2 ed3c
000000a0: 9002 92bd 8009 3a3e aeb3 9cbb 3f76 2d3d
000000b0: fc82 cd3d 27ff 0ebe 0412 97bd a092 513e
000000c0: 1933 71be fbbe 083e 3f96 72bd 5a9d 23be
000000d0: a671 6e3b bfd9 1c3e b408 fcbc f2f0 923d
000000e0: 20b1 2fbe 40a5 523e 5436 57be 8391 0dbe
000000f0: 2869 1ebe 22e7 65be 5819 dc3d 903b ae3c
00000100: 3f24 6ebe 4a34 4f3e 0cb8 db3d d9f2 01be
00000110: 1ca6 c03d c7b2 bbbc f3fe 87bd 33e4 723d
00000120: 7fea 803c 915b 643d 7910 08be bfac 3abd
00000130: 9472 d7bc 9643 23be c8bf 27bc 212f 5abd
00000140: 5c1c bfbd f9ed eabd fb0f 1dbd 7cbe 5fbe
00000150: 57dd c6bd adf0 563c d788 04be e922 a03c
00000160: 0022 32be a117 6e3e 12ab 0bbd 8a7c 86bd
00000170: b34b 5ebe cfd3 1cbd 45ba 3c3d 5828 523c
00000180: 9a05 2a3e d271 183c b7f2 10bd c1f1 383e
00000190: 2544 bf3c 769f b03d fe61 f5bc a042 23bc
000001a0: f282 da3d 380c 923c 8c54 213e d719 f83d
000001b0: 42f7 f73d 33eb 643c c712 e7bb cf28 2dbe
000001c0: 1371 a2ba ef31 d3bd ae41 493c e097 c3ba
000001d0: 5c06 debd 8761 423b 32e2 f6bd 7cdb 133e
000001e0: f249 87bd 998a 9abd f547 103e 2c15 3d3e
000001f0: 3da0 6f3e 6393 f4bc 1209 fdbc 30c1 f0bd
00000200: ad10 413e 75df 1abe 3364 3c3d 5320 cabc
00000210: ab67 cb3d 5715 5a3e bb29 f9bd f4b6 0c3e
00000220: de65 223d 6450 7abd 03f7 9c3d 3de3 bf3c
00000230: d5e6 d8bd 3955 7b3d de6a 5bbe 73db 53be
00000240: c5c2 723d 850b 3f3d 7a8c 12bd 6627 3abd
00000250: 9adf 2c3d 47d9 183e ab2c 203e a8b4 a83d
00000260: f42b 01be d6e0 e6bd 6b60 943d 204e a43d
00000270: 3a07 1cbd d742 273e 76b3 a83d 9fe3 633e
00000280: 10b2 a73d 4e82 3dbe 6d39 13be 00d8 7cbd
00000290: 101a 5a3c 6e00 843e 5f7d 9f3c 4583 fb3d
000002a0: 561c 503e fedc f5bb bd92 76bd 9640 193e
000002b0: ca1c 453d d716 cf3c 77b4 02be 8436 8e3d
000002c0: 40d4 c83d 0bb0 0a3e d0a6 bdbb ec71 c53d
000002d0: 63b1 adbd 3781 ccbd 9de2 8fbd 9ed3 debd
000002e0: 2963 233e 5c57 4cbe 5b92 41bd 6d73 353d
000002f0: 5e14 3e3c 1aea 893d c575 95bd 189e 2a3e
00000300: 5c7e 9cbd d97f 08be 4473 39bd 7382 23be
00000310: 5914 2a3e a299 2f3d 9e6a ec3b 3b31 133d
00000320: 517f ed3c f224 3b3e 14ff 243e 86d2 79bd
00000330: 3d1a 1dbe 8e75 d8bd c255 c73d a33f d5bc
00000340: 6242 aebb baa8 08be 2b2b e63c ddfb b3bd
00000350: 7594 1d3e d72f 323e c1be 51be b45a ccbd
00000360: 6dbe 01be 4bc3 df3d 3f6b acbc 8e14 063d
00000370: 294f dbbc ed3b 4bbe 06ca 14be 12c1 5fbe
00000380: 7b64 16bd dc93 80bb 7927 e73d dd76 9fbc
00000390: a0c0 af3c 6f49 633b c56e 14be 95e6 f63d
000003a0: 4895 30bd 1e03 2f3e 4d9d 813d 4be4 e93d
000003b0: 6432 1bbe 6a24 8abd cdda ecbc 0f04 183e
000003c0: afc7 45bd cce7 afbd 2fdb 2ebe 26d2 863d
000003d0: 8f56 2e3d 5aab df3d 5cac e03d f4f5 fbbc
000003e0: a296 28bd f10c 94bc 8cab 39be 0c19 04be
000003f0: ea43 0dbe 1438 26bd f765 49be db67 5e3d

bias f4 [32]
0.09744564 0.11302101 -0.12724341 -0.118465 -0.11596592 0.10688866 -0.014384124 -0.08093614
-0.094483286 0.14846575 -0.13154294 -0.023372274 0.11896436 0.036807407 -0.020473706 -0.17967242
-0.134705 -0.13854975 0.14119272 0.10445002 0.024360402 -0.008408978 -0.20029002 0.056829385
-0.17557444 -0.060644045 0.11020911 0.05134299 0.1218087 -0.045856155 -0.013250796 -0.02047818
00000000: 9491 c73d 8f77 e73d 194c 02be c79d f2bd
00000010: 8a7f edbd 71e8 da3d 64ab 6bbc d9c1 a5bd
00000020: 7480 c1bd 6807 183e 31b3 06be 3677 bfbc
00000030: 96a3 f33d 5dc3 163d 79b8 a7bc 0cfc 37be
00000040: 1cf0 09be fcdf 0dbe d394 103e e4e9 d53d
00000050: 778f c73c cfc5 09bc d418 4dbe eec5 683d
00000060: c9c9 33be e465 78bd 50b5 e13d 074d 523d
00000070: d776 f93d aad3 3bbd de19 59bc dbc1 a7bc

weight f4 [1, 32]
-0.074364096 0.22381027 0.19351424 -0.20711829 -0.16855669 -0.23770729 0.23990166 0.17920159
-0.09715247 -0.069625676 0.22406387 0.169205 0.074614644 -0.16555262 0.21117994 -0.1317626
-0.1685618 -0.1767564 -0.13151601 0.03140044 0.1281275 -0.12789717 0.0044732327 0.19200589
-0.25016275 0.0058460315 0.018318767 -0.092945874 0.101425685 -0.0111079905 -0.20999593 0.21300854
00000000: 344c 98bd 852e 653e 9928 463e d116 54be
00000010: 209a 2cbe 8a69 73be c8a8 753e 9f80 373e
00000020: e0f7 c6bd e897 8ebd 0071 653e 1344 2d3e
00000030: 90cf 983d a086 29be 8e3f 583e c6ec 06be
00000040: 779b 2cbe a1ff 34be 22ac 06be bf9d 003d
00000050: db33 033e 7af7 02be 3294 923b 319d 443e
00000060: 5515 80be 1190 bf3b 3d11 963c 685a bebd
00000070: 45b8 cf3d 4afe 35bc 2c09 57be e91e 5a3e

weight f4 [1, 32]
-0.20039418 0.12031401 0.11408311 -0.027865157 -0.190464 -0.119425036 -0.04211676 -0.017769588
0.0010980467 -0.100039355 0.23011486 -0.121605136 0.19022863 0.07965288 0.20911466 0.17100804
0.09462564 -0.04725858 0.003171457 0.07930038 -0.21743006 0.008172848 0.16678834 0.10854286
0.22733885 -0.17723903 -0.21784575 -0.022560738 -0.20940089 -0.13525003 0.059081454 0.080652565
00000000: 2234 4dbe 3167 f63d 68a4 e93d 7845 e4bc
00000010: ff08 43be 1d95 f4bd a082 2cbd 8791 91bc
00000020: 55ec 8f3a 6fe1 ccbd 3ba3 6b3e 1d0c f9bd
00000030: 4bcb 423e 0d21 a33d 2722 563e bb1c 2f3e
00000040: 16cb c13d 3692 41bd 38d8 4f3b 3d68 a23d
00000050: fca5 5ebe 69e7 053c 90ca 2a3e b84b de3d
00000060: 84cb 683e 267e 35be f512 5fbe 4cd1 b8bc
00000070: 306d 56be fc7e 0abe 65ff 713d 2c2d a53d
